model_bad_old.pth (torch, 44043 bytes, 8 tensors)

net.0.weight f4 [50, 100]
-0.059929334 -0.035556424 -0.01842067 -0.032473784 -0.008787008 -0.005758482 0.07432057 0.02556845
-0.15326564 0.106271744 0.037784673 -0.03702167 -0.022541452 -0.07824568 -0.02269652 -0.0039204885
0.025144838 0.041424487 0.096935794 0.07862905 0.024620567 -0.017019747 0.054641 0.052686837
0.05183879 0.073589794 0.02083412 0.07913635 0.0918401 0.12803148 0.091691054 0.08474457
-0.020535978 -0.10816588 -0.120342046 -0.050762024 -0.050736047 -0.07329097 0.03762935 0.11225245
0.13648604 -0.048823252 -0.11293389 0.052829735 0.00046235576 -0.18690896 -0.104172215 -0.05432421
-0.10212697 0.04115025 0.06348363 0.042057097 -0.00980423 -0.023502467 -0.06531223 -0.089240134
-0.07829354 -0.07455625 0.002831151 -0.009585587 0.109936126 -0.010709875 0.044190824 -0.09384264
-0.024773158 -0.058679014 -0.15342925 -0.059023496 -0.108937554 0.031076679 0.0043899734 0.11788488
-0.023042312 -0.10182611 -0.12429497 -0.04485805 0.0036780674 0.02631119 0.03063348 0.121800765
-0.07176637 -0.02229219 -0.030826554 0.020008719 -0.037938807 -0.09728813 0.01180131 0.051851496
0.048797652 0.10242498 0.14981581 0.04279899 0.062417742 0.026335489 -0.0826545 -0.016759813
-0.065711476 0.14881888 0.014619865 0.111441664 0.0012610141 -0.014695726 -0.04824194 -0.011269519
0.10611833 0.1204727 0.081592485 0.05987445 0.05542754 -0.0034006261 0.070070796 -0.01178579
0.010117798 -0.06480526 -0.038496863 0.09123999 -0.018550918 -0.020689411 -0.1135456 0.038442552
-0.016785882 -0.056008898 -0.036471657 0.025132466 0.05001983 -0.067040525 0.0020756815 -0.06853878
0.005639447 0.05878922 -0.085921116 -0.055672698 -0.101836845 -0.02208073 0.05487983 -0.070860974
0.08529432 0.03861635 -0.003229569 -0.031150134 0.020949192 0.07016533 -0.08637061 -0.0021221135
0.027111575 -0.055902865 -0.10339187 -0.016046384 0.02929536 0.04404353 -0.012868026 0.039852865
0.03593232 0.010123801 -0.06572145 -0.04060368 0.016685268 -0.083631456 0.015704326 -0.009481497
0.019467108 0.0833023 -0.09285168 0.0826655 -0.023564149 0.0137992315 -0.1472124 -0.057180777
-0.011870456 0.00021921248 0.059647564 -0.058062494 -0.14507611 -0.014969136 -0.02652317 0.07162234
0.0532491 0.00032070582 -0.046499956 -0.05488041 0.07952063 -0.028870093 -0.11196461 0.19579187
0.12932645 0.07775511 0.13138978 0.059320476 0.034531016 0.13276292 -0.0602392 0.07898129
0.044180933 0.1262252 0.023726853 0.107787475 -0.008842797 0.10319356 0.07595447 -0.02210283
0.13240749 0.017381517 0.11969339 0.116456114 0.21292043 -0.07597926 -0.05378251 0.10738223
0.00072026503 0.072439596 0.041619875 -0.007697506 0.014105773 -0.011666799 -0.05155968 -0.10327681
0.050539713 0.0857636 -0.08037284 0.09929132 0.09839788 0.060041703 -0.18668544 0.0144525105
0.07127 -0.023320174 -0.0929403 0.08305965 -0.030202882 0.047199517 -0.09959024 0.019667953
-0.10823938 -0.041054215 -0.072100095 0.022105163 -0.14913101 -0.11441382 -0.07020273 -0.07772212
0.01605251 0.19179454 0.02954211 0.006409269 0.061747707 -0.08141289 -0.074922 0.071697146
-0.036524717 -0.052987505 0.050800595 -0.013306574 0.1187367 -0.063477114 -0.07312689 -0.055671785
00000000: 7678 75bd 9da3 11bd f2e6 96bc 3b03 05bd
00000010: 62f7 0fbc a6b1 bcbb 6235 983d ed74 d13c
00000020: abf1 1cbe 00a5 d93d 1ac4 1a3d 09a4 17bd
00000030: daa8 b8bc 453f a0bd 0dee b9bc 7177 80bb
00000040: 8cfc cd3c b9ac 293d 4686 c63d 4408 a13d
00000050: 12b1 c93c ff6c 8bbc 3ecf 5f3d 27ce 573d
00000060: e954 543d 3fb6 963d 51ac aa3c 3d12 a23d
00000070: aa16 bc3d af1a 033e 85c8 bb3d 908e ad3d
00000080: 113b a8bc 1386 ddbd e475 f6bd d7eb 4fbd
00000090: 9ad0 4fbd 9319 96bd 3c21 1a3d 9de4 e53d
000000a0: ffc2 0b3e e4fa 47bd e249 e7bd fe63 583d
000000b0: 5768 f239 1065 3fbe 3e58 d5bd 1083 5ebd
000000c0: f227 d1bd 2a8d 283d b503 823d 1044 2c3d
000000d0: eca1 20bc 3f88 c0bc 6bc2 85bd 88c3 b6bd
000000e0: 5d58 a0bd f2b0 98bd d58a 393b de0c 1dbc
000000f0: 3126 e13d 7978 2fbc 7001 353d 9230 c0bd
00000100: 14f1 cabc 6859 70bd 8f1c 1dbe 9fc2 71bd
00000110: a71a dfbd 8594 fe3c c4d9 8f3b a16d f13d
00000120: 3bc3 bcbc 358a d0bd 5c8e febd 13bd 37bd
00000130: bb0b 713b 918a d73c 10f3 fa3c ae72 f93d
00000140: 3ffa 92bd 1c9e b6bc f887 fcbc 53e9 a33c
00000150: b965 1bbd 003f c7bd 485a 413c 3c62 543d
00000160: 0ce0 473d 30c4 d13d 5169 193e fe4d 2f3d
00000170: bfa9 7f3d 86bd d73c c346 a9bd e04b 89bc
00000180: bd93 86bd fa63 183e 2988 6f3c 873b e43d
00000190: 9d48 a53a 58c6 70bc 5799 45bd caa3 38bc
000001a0: 9154 d93d 64ba f63d f619 a73d e93e 753d
000001b0: fd07 633d 0add 5ebb 4781 8f3d 3019 41bc
000001c0: 1fc5 253c 9fb8 84bd e3ae 1dbd 08dc ba3d
000001d0: 18f8 97bc d77c a9bc 988a e8bd f075 1d3d
000001e0: 8c82 89bc 9669 65bd 4e63 15bd 9ae2 cd3c
000001f0: 98e1 4c3d 8b4c 89bd 2808 083b 0f5e 8cbd
00000200: 1ccb b83b f7cc 703d 69f7 afbd 0e09 64bd
00000210: d68f d0bd a6e2 b4bc acc9 603d 8f1f 91bd
00000220: caae ae3d 2e2c 1e3d 2da7 53bb 912e ffbc
00000230: a49d ab3c d7b2 8f3d 13e3 b0bd 2813 0bbb
00000240: 1819 de3c 67fa 64bd 1ebf d3bd b573 83bc
00000250: d3fc ef3c fd66 343d 6ad4 52bc c23c 233d
00000260: c52d 133d 4dde 253c f898 86bd 0b50 26bd
00000270: 8baf 883c f846 abbd 5ca6 803c 4858 1bbc
00000280: 7c79 9f3c 659a aa3d 0629 bebd 884c a93d
00000290: 9a09 c1bc 2c16 623c d9be 16be 6436 6abd
000002a0: 4d7c 42bc 67dc 6539 0151 743d f0d2 6dbd
000002b0: d58e 14be 1b41 75bc 1e47 d9bc bcae 923d
000002c0: ba1b 5a3d 6824 a839 bd76 3ebd 48ca 60bd
000002d0: b6db a23d f980 ecbc b44d e5bd aa7d 483e
000002e0: 276e 043e 123e 9f3d 0b8b 063e 07fa 723d
000002f0: 6570 0d3d 01f3 073e 61bd 76bd f1c0 a13d
00000300: 11f7 343d 2e41 013e d15e c23c aebf dc3d
00000310: 61e1 10bc 2557 d33d 048e 9b3d fe10 b5bc
00000320: d495 073e af63 8e3c cf21 f53d 8b80 ee3d
00000330: d007 5a3e 049b 9bbd 0d4b 5cbd 37eb db3d
00000340: 2bd0 3c3a 365b 943d 9a79 2a3d 5c3b fcbb
00000350: e61b 673c 1a26 3fbc 3e30 53bd cb82 d3bd
00000360: bb02 4f3d d4a4 af3d 849a a4bd 3f59 cb3d
00000370: d484 c93d 4aee 753d 782a 3fbe 39ca 6c3c
00000380: 01f6 913d f309 bfbc 7c57 bebd 2e1b aa3d
00000390: 096c f7bc 4854 413d f8f5 cbbd b01e a13c
000003a0: 9cac ddbd 7728 28bd 37a9 93bd e315 b53c
000003b0: cdb5 18be cb51 eabd 73c6 8fbd c62c 9fbd
000003c0: 8e80 833c ca65 443e 4c02 f23c d804 d23b
000003d0: 2aeb 7c3d cdbb a6bd b570 99bd f4d5 923d
000003e0: f19a 15bd 6d09 59bd 4914 503d d103 5abc
000003f0: 3a2c f33d 4a00 82bd 8dc3 95bd 1908 64bd

net.0.bias f4 [50]
0.149189 0.1600794 0.045345075 -0.107734986 0.14663245 0.16339025 0.049950995 0.16412908
0.06458567 0.06554983 -0.011891868 0.19695766 0.016517632 0.18546398 0.042558067 0.098606706
0.29830667 0.05396666 0.13599707 0.26488185 0.078201726 0.22579163 0.118591115 0.1598423
-0.022143673 0.084445335 0.1805232 -0.1312621 -0.06942014 0.002306228 0.20798615 0.17405486
0.08368552 -0.06751972 0.25457212 0.012935833 0.09660655 0.051803492 0.23819692 0.06346446
0.17631406 0.11036577 -0.06902484 0.091916256 0.19362354 0.20117092 0.22562188 0.2073951
0.2175136 -0.0009529164
00000000: 00c5 183e dbeb 233e c2bb 393d 29a4 dcbd
00000010: d126 163e c64f 273e 6a99 4c3d 7411 283e
00000020: 7e45 843d fd3e 863d 1cd6 42bc 45af 493e
00000030: fc4f 873c 45ea 3d3e 5e51 2e3d 50f2 c93d
00000040: a7bb 983e 250c 5d3d d142 0b3e 989e 873e
00000050: 3a28 a03d ec35 673e e6df f23d b3ad 233e
00000060: a666 b5bc adf1 ac3d 13db 383e 9269 06be
00000070: 252c 8ebd 1624 173b 52fa 543e 703b 323e
00000080: 5063 ab3d c747 8abd 4757 823e d1f0 533c
00000090: a8d9 c53d e62f 543d e5e9 733e a8f9 813d
000000a0: ac8b 343e 7307 e23d e55c 8dbd 973e bc3d
000000b0: 4045 463e c0ff 4d3e 6c09 673e 625f 543e
000000c0: e3bb 5e3e 23cd 79ba

net.2.weight f4 [50, 50]
0.03478324 -0.02772405 -0.006954525 -0.14841123 0.1194646 0.13324839 0.12441745 0.015997462
-0.09610154 0.16641541 0.084848195 0.1081756 -0.054957863 0.11998038 -0.036255486 -0.0119928885
0.20712318 0.06306295 0.06858492 0.16053906 0.08406625 0.10776552 -0.026281767 0.21477939
-0.055181377 0.14661288 0.080537274 -0.04885594 0.10037323 -0.030626616 0.0602929 0.03842109
-0.093209356 -0.04541608 0.15384153 -0.010219389 0.14940016 -0.021022936 0.18953322 -0.03806156
0.12214485 0.014236177 0.029567655 -0.011393242 0.12675539 0.018785466 0.010357988 0.15469119
-0.008231824 0.06553677 -0.012396301 0.10418134 0.12524119 0.119345576 -0.041967545 0.09219877
0.18240035 0.04357065 0.18661442 -0.033863463 -0.071985215 -0.064075336 0.09085397 0.15482108
0.09796715 0.17062686 0.17618677 -0.080074735 -0.021796843 0.2021915 -0.010192903 -0.054366026
0.018856352 0.1864192 0.012494538 0.014728654 0.07844228 -0.059478037 -0.0047838474 -0.058395166
0.1219835 0.100211784 0.15987892 0.01002604 0.15000291 0.013345132 0.16935399 0.030281141
0.06429083 0.1505805 -0.031099986 -0.0042621167 0.07879649 -0.08346864 0.05384009 0.020447161
0.22589515 0.08407006 0.03486691 -0.023655994 -0.06846638 -0.097702436 0.18214267 0.10540335
0.04101831 -0.07062448 0.0031075606 -0.0041873357 -0.059209127 0.1056749 -0.02552732 0.02970196
-0.04492349 -0.14147073 -0.11776482 -0.1301647 0.09308389 0.054682154 0.08156908 0.039072104
-0.083786614 -0.121951416 0.15609725 -0.089149624 -0.027020575 -0.12079031 -0.14903434 0.07737832
0.13320966 0.18303333 0.018434772 0.09914876 -0.01507226 -0.08071771 -0.12221441 -0.018685492
-0.115205795 -0.19946174 -0.07423813 0.035773706 -0.04971376 -0.10618466 -0.14044572 0.10366323
0.12400413 -0.12841922 0.09418132 -0.09187633 -0.05945214 -0.094411045 0.14660448 0.08909235
0.15092695 -0.04880637 -0.03870358 0.039805323 -0.051545754 -0.048356947 0.03654467 0.05496212
0.15171488 0.17636672 0.07034301 0.036947213 -0.024700902 -0.065977946 -0.041699834 -0.071819834
0.05498047 0.041356377 0.142033 -0.041159313 -0.05139125 0.20893888 -0.04116169 0.17497103
0.15554616 0.10267933 0.05170438 0.08472121 -0.061701596 0.12938254 -0.10877117 0.05830175
0.042935703 0.12817594 -0.045373056 -0.10540612 0.106123865 -0.09427548 0.06309646 0.12965368
0.13219419 -0.034686185 0.13708569 -0.022320531 0.028831828 0.0821231 0.21147946 -0.05491486
-0.13731414 0.14970747 0.17412895 0.031312432 -0.035753977 0.072696805 -0.12723084 -0.091850005
0.13945568 0.006739006 0.065949015 0.10442335 0.04430479 -0.039712727 -0.040375367 -0.008137597
-0.023060074 0.045536403 -0.10441683 -0.06601811 0.15695445 0.05549853 0.12032162 0.05299908
-0.040672097 -0.03728132 0.00921779 0.13091092 0.11601985 0.024276715 -0.07451795 0.05145307
0.11470592 0.11430943 -0.121403396 0.1596249 0.0010962333 0.084525615 -0.18214835 0.015659235
0.034085833 -0.08439426 -0.03875816 0.0078019327 -0.15809667 -0.13936673 0.024103437 0.07166919
-0.10324028 -0.09263931 0.02693159 0.12860467 0.12096397 0.08665314 0.021601748 0.14006692
00000000: df78 0e3d 8c1d e3bc c9e2 e3bb 1df9 17be
00000010: dba9 f43d 4472 083e 93ce fe3d 1c0d 833c
00000020: e2d0 c4bd cd68 2a3e e4c4 ad3d 2b8b dd3d
00000030: 7f1b 61bd 46b8 f53d a280 14bd d27d 44bc
00000040: 1918 543e 2627 813d 4076 8c3d 5a64 243e
00000050: ed2a ac3d 2bb4 dc3d dc4c d7bc 21ef 5b3e
00000060: de05 62bd b021 163e baf0 a43d 2b1d 48bd
00000070: 7b90 cd3d abe4 fabc b0f5 763d 6f5f 1d3d
00000080: 8ce4 bebd 3606 3abd a288 1d3e 396f 27bc
00000090: 5bfc 183e 4b38 acbc ff14 423e 70e6 1bbd
000000a0: 1427 fa3d db3e 693c de37 f23c b8aa 3abc
000000b0: 2acc 013e fae3 993c 8db4 293c 5e67 1e3e
000000c0: c6de 06bc 2438 863d db19 4bbc 075d d53d
000000d0: 3a3f 003e 746b f43d 29e6 2bbd b5d2 bc3d
000000e0: 28c7 3a3e 2377 323d da17 3f3e 6ab4 0abd
000000f0: fc6c 93bd ee39 83bd a511 ba3d 6b89 1e3e
00000100: 00a3 c83d cfb8 2e3e 4e6a 343e 39fe a3bd
00000110: 4b8f b2bc 4a0b 4f3e 2200 27bc e9ae 5ebd
00000120: a378 9a3c ade4 3e3e e4b5 4c3c 7450 713c
00000130: 59a6 a03d 3e9f 73bd d2c1 9cbb c52f 6fbd
00000140: 7cd2 f93d d63b cd3d 4db7 233e 4244 243c
00000150: 5d9a 193e 8aa5 5a3c 226b 2d3e 2810 f83c
00000160: e9aa 833d c631 1a3e 66c5 febc 3aa9 8bbb
00000170: 0e60 a13d 9bf1 aabd 6d87 5c3d ce80 a73c
00000180: 0f51 673e ec2c ac3d 9bd0 0e3d 37ca c1bc
00000190: 1a38 8cbd 3718 c8bd 9c83 3a3e b6dd d73d
000001a0: d102 283d 91a3 90bd 37a8 4b3b eb35 89bb
000001b0: 4585 72bd 156c d83d ac1e d1bc 8651 f33c
000001c0: b201 38bd b4dd 10be af2e f1bd e549 05be
000001d0: c4a2 be3d 65fa 5f3d b10d a73d 120a 203d
000001e0: 5198 abbd aac1 f9bd f5d7 1f3e 1494 b6bd
000001f0: 415a ddbc e960 f7bd 759c 18be 8678 9e3d
00000200: 1d68 083e 176d 3b3e 8504 973c 810e cb3d
00000210: a4f1 76bc 544f a5bd 8c4b fabd 5112 99bc
00000220: 04f1 ebbd b33f 4cbe 290a 98bd 7387 123d
00000230: a8a0 4bbd 5877 d9bd 01d1 0fbe 634d d43d
00000240: e1f5 fd3d 5480 03be 23e2 c03d a829 bcbd
00000250: 1684 73bd 945a c1bd 7c1f 163e 0d76 b63d
00000260: 988c 1a3e 30e9 47bd a587 1ebd e80a 233d
00000270: a421 53bd ef11 46bd ddaf 153d f61f 613d
00000280: 255b 1b3e 7a99 343e ff0f 903d f655 173d
00000290: 8c59 cabc 721f 87bd 72cd 2abd 4716 93bd
000002a0: 3433 613d 4e65 293d 1971 113e ab96 28bd
000002b0: a27f 52bd 13f4 553e 2999 28bd 9b2b 333e
000002c0: 7e47 1f3e 8a49 d23d f9c7 533d 5082 ad3d
000002d0: d0ba 7cbd db7c 043e 6bc3 debd d1cd 6e3d
000002e0: 59dd 2f3d 8e40 033e 19d9 39bd 2adf d7bd
000002f0: 7857 d93d 8113 c1bd b838 813d efc3 043e
00000300: ea5d 073e 1a13 0ebd 3160 0c3e 8cd9 b6bc
00000310: ba30 ec3c 2830 a83d 128e 583e 67ee 60bd
00000320: 149c 0cbe ea4c 193e dc4e 323e 7741 003d
00000330: c372 12bd 10e2 943d cd48 02be db1b bcbd
00000340: 78cd 0e3e e1d2 dc3b 4710 873d e9db d53d
00000350: f178 353d d0a9 22bd a460 25bd 8e53 05bc
00000360: 7be8 bcbc 6184 3a3d 7ed8 d5bd 8134 87bd
00000370: abb8 203e 6d52 633d 2e6b f63d 9015 593d
00000380: c997 26bd 4cb4 18bd 3706 173c 830d 063e
00000390: d19b ed3d f6df c63c de9c 98bd 74c0 523d
000003a0: f0ea ea3d 101b ea3d 58a2 f8bd b674 233e
000003b0: 7caf 8f3a c41b ad3d 1985 3abe cc47 803c
000003c0: 969d 0b3d e6d6 acbd e0c0 1ebd 5ba7 ff3b
000003d0: 18e4 21be 27b6 0ebe 9274 c53c 4cc7 923d
000003e0: a46f d3bd aeb9 bdbd a39f dc3c f1b0 033e
000003f0: f5bb f73d 3477 b13d 26f6 b03c b46d 0f3e

net.2.bias f4 [50]
0.18445316 0.21922788 -0.16981664 0.26517797 0.06773297 0.21905646 0.0053705606 0.0009253636
0.23139289 0.023982657 -0.035637345 -0.022333583 0.026313378 0.07051856 0.2066822 0.14970464
0.1790422 0.25672704 0.16322815 -0.13434498 0.27548313 0.26692358 0.21177144 0.13736862
-0.016165974 0.13407442 -0.175956 0.24922585 0.3020402 -0.19281532 0.07106959 0.17634067
0.21354814 0.24654476 0.14858083 0.2443102 0.091339424 -0.021604018 -0.14473325 -0.06726485
0.059087392 0.015772982 -0.15574057 0.24292347 0.20626642 -0.020760104 -0.03297486 0.04806657
0.23299052 0.20073229
00000000: 4ae1 3c3e 467d 603e 6ae4 2dbe 68c5 873e
00000010: 95b7 8a3d 5650 603e 87fb af3b 1a94 723a
00000020: 42f2 6c3e 4777 c43c 77f8 11bd ebf4 b6bc
00000030: 278f d73c 096c 903d 80a4 533e 2c4c 193e
00000040: d756 373e ba71 833e 4825 273e bb91 09be
00000050: 200c 8d3e 35aa 883e 9dda 583e 5caa 0c3e
00000060: 816e 84bc ce4a 093e cf2d 34be 1035 7f3e
00000070: 03a5 9a3e 6171 45be ef8c 913d a692 343e
00000080: 5dac 5a3e 3b76 7c3e 9325 183e 742c 7a3e
00000090: 2a10 bb3d e9fa b0bc f434 14be 27c2 89bd
000000a0: 9f05 723d 5736 813c 757a 1fbe eec0 783e
000000b0: 8137 533e 1811 aabc a610 07bd 74e1 443d
000000c0: 1195 6e3e c48c 4d3e

net.4.weight f4 [50, 50]
0.14381865 0.039459683 0.12892227 0.145203 0.10070862 0.24005534 0.03148063 0.04621756
0.10431201 -0.041813575 0.09354732 0.1044647 0.17621677 0.082304835 -0.041605677 0.21086578
0.12878203 0.107671924 0.16056761 0.036036666 0.024840774 0.1164821 0.10405215 0.19793376
0.023416605 0.12658136 0.114655 0.1074226 -0.030544894 0.116951466 0.060775563 -0.003809934
0.13797367 0.1888929 0.11296925 0.061129335 0.15362628 0.0764993 0.044551067 -0.065554805
0.103999734 0.018478034 -0.050189964 0.23959966 0.060593445 0.051610533 -0.17447335 0.24405555
0.13765638 0.20631632 0.22131564 0.27131298 -0.08585883 -0.0008891038 0.1640318 0.19396532
0.005266817 -0.039613552 0.23144986 0.13467926 -0.028365526 0.03636899 -0.06579617 0.096741766
0.16933961 0.0035091806 0.075985424 0.1290535 0.071714275 -0.00040393375 0.2066542 0.030205045
0.24867852 -0.0055898875 0.118375 0.11333231 -0.05798096 0.25036648 0.14598416 -0.13120537
0.101781294 -0.0063325115 0.097358316 0.15685329 0.043070186 0.25218225 0.19769497 0.022312446
0.0075313128 0.06235319 0.14569983 -0.017017642 -0.058999665 0.18478394 0.22117142 0.1162123
-0.120799825 0.07524347 0.095315136 0.08359918 0.043263894 0.003911521 -0.060809933 -0.08279242
-0.022665089 0.13076282 0.10685646 0.0373518 0.06648958 0.094139464 -0.053462133 0.11409769
-0.13372205 -0.09114977 -0.15060851 0.006710458 -0.038174767 -0.018275354 0.06180156 -0.078886814
-0.0243566 0.0018308088 0.14601418 -0.06431582 -0.015004382 -0.12125156 0.10871887 0.115101844
-0.08817201 -0.051151123 -0.03970632 0.09651276 -0.11027636 -0.13145821 -0.006640418 -0.07256306
-0.048448935 0.10736178 0.093653165 -0.12329391 -0.05196628 -0.042412996 -0.09380592 -0.031320304
-0.043764833 -0.0046293554 -0.039698333 -0.05306208 -0.09037511 -0.15634911 -0.15022975 0.012655167
-0.09396416 0.028081056 -0.07243082 0.10576226 0.083274536 -0.119601764 -0.069653064 0.110249944
0.12248225 -0.12295963 -0.018913448 -0.02390037 0.03295244 -0.021817569 0.022435958 0.016556446
-0.0063339644 0.11018848 -0.09432222 0.05351254 -0.07769162 0.045224164 0.0030368464 -0.007327717
0.020747054 0.06009871 -0.032492947 -0.0933399 -0.06399914 -0.15703543 0.036455486 -0.019907294
-0.06547218 -0.0951525 0.102258906 0.059495114 -0.011988845 0.07416375 -0.06664574 -0.07885446
-0.026776899 -0.058971945 -0.012035091 -0.0035250045 -0.047698118 0.09771814 -0.037670556 0.10170715
0.119883835 0.036532048 0.038372774 0.10256372 -0.15170822 0.11778184 0.039985154 0.22433664
0.23199472 -0.065724134 -0.019114623 0.12638171 -0.07226867 0.039329506 -0.007516619 0.123659045
0.14998 0.017454028 -0.0135359 -0.15104778 0.09191679 0.14132637 0.04838318 0.16871457
0.09220641 0.1528571 -0.009611944 0.060927715 -0.0012080492 -0.08537354 0.034562085 0.17890029
0.25423157 0.19128062 0.076659754 -0.0024031994 0.16609669 0.03924635 0.02548988 -0.017622754
0.21411556 -0.10085087 -0.024151286 0.24545237 0.07508266 -0.07657337 0.10100688 0.21395205
0.15865985 0.1303386 0.27375922 0.15927038 -0.07739442 0.24469239 -0.10727463 0.10617343
00000000: 3245 133e 7aa0 213d 3304 043e 18b0 143e
00000010: 5240 ce3d 11d1 753e d5f1 003d a04e 3d3d
00000020: 89a1 d53d b644 2bbd bd95 bf3d 97f1 d53d
00000030: 2b72 343e 708f a83d b76a 2abd 33ed 573e
00000040: 70df 033e 1983 dc3d d66b 243e 2f9b 133d
00000050: e17e cb3c 2b8e ee3d 4b19 d53d 26af 4a3e
00000060: 2ed4 bf3c 8b9e 013e 3ed0 ea3d 6100 dc3d
00000070: 4939 fabc 4084 ef3d ccef 783d 16b0 79bb
00000080: f848 0d3e 246d 413e 6c5c e73d c162 7a3d
00000090: 3550 1d3e aaab 9c3d 2e7b 363d 9941 86bd
000000a0: d0fd d43d 3f5f 973c fe93 4dbd 9d59 753e
000000b0: d530 783d 9165 533d 24a9 32be b3e9 793e
000000c0: cbf5 0c3e 9644 533e 91a0 623e 89e9 8a3e
000000d0: c1d6 afbd bf12 69ba f4f7 273e d89e 463e
000000e0: 4395 ac3b d241 22bd 3101 6d3e 5ce9 093e
000000f0: d25e e8bc a6f7 143d 24c0 86bd 8c20 c63d
00000100: 5d67 2d3e 48fa 653b 3f9e 9b3d 9a26 043e
00000110: efde 923d 12c7 d3b9 299d 533e 9270 f73c
00000120: 95a5 7e3e 602b b7bb 986e f23d c51a e83d
00000130: 717d 6dbd 0930 803e df7c 153e b35a 06be
00000140: b672 d03d f580 cfbb cc63 c73d 269e 203e
00000150: 5d6a 303d 081e 813e 8d70 4a3e 97c8 b63c
00000160: 3bc9 f63b 0f66 7f3d 5632 153e 9568 8bbc
00000170: a2a9 71bd 0038 3d3e c37a 623e b700 ee3d
00000180: e665 f7bd 4019 9a3d 9534 c33d 0c36 ab3d
00000190: 7b35 313d 372c 803b d613 79bd 138f a9bd
000001a0: 23ac b9bc b0e6 053e 8fd7 da3d 33fe 183d
000001b0: b02b 883d 31cc c03d 1cfb 5abd 0dac e93d
000001c0: 6fee 08be bbac babd 1e39 1abe 67e3 db3b
000001d0: 255d 1cbd 32b6 95bc a223 7d3d 698f a1bd
000001e0: 7e87 c7bc c0f7 ef3a be84 153e 03b8 83bd
000001f0: f0d4 75bc bd52 f8bd 00a8 de3d 84ba eb3d
00000200: 8793 b4bd d783 51bd 18a3 22bd 7ba8 c53d
00000210: 92d8 e1bd fb9c 06be dd97 d9bb f19b 94bd
00000220: 6472 46bd 7ee0 db3d 3bcd bf3d 8481 fcbd
00000230: 98da 54bd 40b9 2dbd 511d c0bd b849 00bd
00000240: c142 33bd d9b1 97bb b89a 22bd a057 59bd
00000250: 9616 b9bd fb19 20be d4d5 19be 9e57 4f3c
00000260: 4870 c0bd 3e0a e63c 9c56 94bd e299 d83d
00000270: d78b aa3d c5f1 f4bd 44a6 8ebd b9ca e13d
00000280: f9d7 fa3d 42d2 fbbd 60f0 9abc b5ca c3bc
00000290: 23f9 063d c2ba b2bc 9dcb b73c 62a1 873c
000002a0: 258d cfbb 7faa e13d 022c c1bd f72f 5b3d
000002b0: c91c 9fbd f93c 393d d405 473b 581d f0bb
000002c0: baf5 a93c 112a 763d 5317 05bd fd28 bfbd
000002d0: fb11 83bd e5cd 20be 5952 153d 9f14 a3bc
000002e0: 4716 86bd 50df c2bd 1e6d d13d 26b1 733d
000002f0: dc6c 44bc 2ae3 973d 907d 88bd 727e a1bd
00000300: 3a5b dbbc 918c 71bd d52e 45bc c303 67bb
00000310: 1a5f 43bd 7320 c83d 714c 1abd d74b d03d
00000320: a885 f53d a1a2 153d c52c 1d3d ed0c d23d
00000330: 6659 1bbe 9b37 f13d 79c7 233d 81b8 653e
00000340: 0690 6d3e 609a 86bd 4596 9cbc 356a 013e
00000350: 9901 94bd fa17 213d f84d f6bb f440 fd3d
00000360: 5b94 193e c0fb 8e3c aec5 5dbc 45ac 1abe
00000370: df3e bc3d dcb7 103e 712d 463d 83c3 2c3e
00000380: b7d6 bc3d 9286 1c3e 6a7b 1dbc 578f 793d
00000390: 6857 9eba 53d8 aebd f990 0d3d a331 373e
000003a0: a42a 823e 11df 433e caff 9c3d ff7e 1dbb
000003b0: 4015 2a3e c8c0 203d 27d0 d03c 985d 90bc
000003c0: 1c41 5b3e e78a cebd ebd8 c5bc de57 7b3e
000003d0: f0c4 993d 80d2 9cbd b2dc ce3d 3f16 5b3e
000003e0: ba77 223e 7b77 053e 2b2a 8c3e c617 233e
000003f0: f780 9ebd a490 7a3e cdb2 dbbd 7571 d93d

net.4.bias f4 [50]
0.23296548 0.061369613 0.051586572 -0.03225521 0.20378649 0.24067044 0.009111651 0.024874724
-0.05835393 -0.05946794 -0.062094077 -0.03926217 0.010943612 0.18025376 -0.019996842 -0.12648174
-0.11993784 0.16083479 0.036727987 0.0728277 -0.05204852 -0.059002656 0.13583641 -0.15030771
-0.06951893 -0.1360809 0.02938628 -0.05118765 0.009168779 0.21092679 0.21511625 -0.12157895
0.14918348 -0.12555127 0.03659892 0.051844914 0.10759644 0.28509417 0.14977786 0.16815972
-0.010868666 -0.082282215 -0.106952734 0.08670933 0.0010624528 -0.13288137 -0.09048598 0.022826236
0.15064047 -0.09122895
00000000: 818e 6e3e b45e 7b3d 714c 533d 0a1e 04bd
00000010: 68ad 503e 5072 763e 0949 153c 14c6 cb3c
00000020: 8804 6fbd a894 73bd 5c56 7ebd 5fd1 20bd
00000030: d64c 333c 7194 383e 6bd0 a3bc 6e84 01be
00000040: f8a1 f5bd e0b1 243e 1670 163d b026 953d
00000050: d430 55bd c5ac 71bd b318 0b3e 44ea 19be
00000060: f15f 8ebd cb58 0bbe 7fbb f03c 24aa 51bd
00000070: a538 163c 31fd 573e 6f47 5c3e 62fe f8bd
00000080: 8ec3 183e 8390 00be c0e8 153d 555b 543d
00000090: 865b dc3d ddf7 913e 5e5f 193e 1032 2c3e
000000a0: 7d12 32bc 9483 a8bd 090a dbbd a994 b13d
000000b0: 0042 8b3a 0e12 08be b750 b9bd 16fe ba3c
000000c0: 7f41 1a3e 3ed6 babd

net.6.weight f4 [3, 50]
-0.09661385 -0.21117477 0.09246411 0.035603166 -0.25268325 -0.1472579 0.10065546 0.053217817
-0.08688983 0.089938164 -0.015548244 -0.02894889 0.053205855 -0.23728697 0.10987538 -0.121049576
0.1125387 -0.10747186 0.1188911 0.09674857 0.046507597 0.06664552 -0.13147034 0.11245359
0.037313495 0.15170333 0.1245025 -0.066726476 -0.05585069 -0.104491 -0.11514768 0.11301203
-0.22977659 -0.07818103 0.077641144 -0.1656646 0.0010509802 -0.21216889 -0.26829654 -0.057865683
0.026228841 -0.055000383 -0.093913294 0.023093669 0.04246573 -0.008268222 0.0973998 0.04292047
-0.23526384 0.07456198 -0.23017417 -0.10131013 -0.051658012 -0.0038544012 -0.19757813 -0.24305046
-0.06461834 -0.04862582 0.04743804 -0.032566402 0.07096815 -0.015096943 0.09648157 -0.060981918
-0.12193353 0.06781893 -0.021372296 -0.04276131 0.112532385 0.105282426 -0.0676571 -0.1304117
-0.2106706 -0.005027003 0.0064036213 0.064804204 0.009433931 -0.006887453 -0.115170024 -0.22070222
-0.13193996 0.07080935 -0.1664303 0.12795745 -0.015136142 -0.0009791115 -0.149496 -0.10557599
-0.18501057 -0.14204398 0.063624844 -0.010228247 -0.05531651 -0.024511674 -0.10917214 -0.14051288
0.014012906 -0.030667 0.005573668 -0.033919193 -0.112182304 -0.31592923 0.027589323 -0.09632498
-0.00567636 -0.17200309 -0.031388022 0.12016285 -0.1049782 0.03953274 0.0036607385 -0.08715899
-0.038234323 -0.012868274 0.021199308 0.10794206 -0.077731065 -0.00032101953 0.053425204 -0.030213006
-0.12111497 0.023243949 -0.02741557 -0.07968872 0.04586578 0.0121750375 0.021664385 -0.09957053
-0.31368482 -0.057514448 -0.098856784 0.103639126 -0.25749013 -0.1393903 0.0857019 -0.22249483
-0.18938828 -0.105537295 -0.035616875 -0.18198813 -0.09882284 0.03228225 0.0010081101 -0.12029557
0.08730911 -0.13749759 0.008509061 -0.034201887 -0.14106749 0.07347071
00000000: 7bdd c5bd 333e 58be d35d bd3d a0d4 113d
00000010: b35f 81be c6ca 16be 7324 ce3d edfa 593d
00000020: 4cf3 b1bd 8031 b83d 10be 7ebc 3926 edbc
00000030: 62ee 593d 5bfb 72be 5806 e13d d7e8 f7bd
00000040: b17a e63d 351a dcbd 2d7d f33d 1d24 c63d
00000050: c07e 3e3d 727d 883d 29a0 06be 114e e63d
00000060: 09d6 183d 1e58 1b3e 2bfb fe3d e4a7 88bd
00000070: b1c3 64bd 61ff d5bd 8cd2 ebbd da72 e73d
00000080: 8e4a 6bbe 601d a0bd 5202 9f3d fba3 29be
00000090: 0bc1 893a cd42 59be 2a5e 89be 9104 6dbd
000000a0: dedd d63c 1548 61bd 9d55 c0bd ef2e bd3c
000000b0: 8cf0 2d3d 7077 07bc 8c79 c73d 60cd 2f3d
000000c0: 01e9 70be f4b3 983d c7b2 6bbe af7b cfbd
000000d0: 5a97 53bd 1f9a 7cbb ec51 4abe 38e2 78be
000000e0: 9f56 84bd de2b 47bd 644e 423d 5964 05bd
000000f0: c057 913d 2b59 77bc 2198 c53d 2dc8 79bd
00000100: 49b8 f9bd a7e4 8a3d f414 afbc 7c26 2fbd
00000110: 6177 e63d 509e d73d ce8f 8abd a58a 05be
00000120: 09ba 57be 8fb9 a4bb 78d5 d13b 11b8 843d
00000130: c690 1a3c 25b0 e1bb 43de ebbd c3ff 61be
00000140: 451b 07be 7e04 913d b46c 2abe 4707 033e
00000150: 95fd 77bc 8855 80ba 7b15 19be 3a38 d8bd
00000160: 6973 3dbe fa73 11be be4d 823d 6194 27bc
00000170: 9193 62bd b5cc c8bc a595 dfbd 9ce2 0fbe
00000180: 6396 653c 5c39 fbbc 51a3 b63b daee 0abd
00000190: d6bf e5bd 7ac1 a1be 0103 e23c 0846 c5bd
000001a0: c200 babb 9421 30be ba90 00bd f117 f63d
000001b0: cffe d6bd 15ed 213d 00e9 6f3b 6a80 b2bd
000001c0: 989b 1cbd 74d5 52bc 2caa ad3c ba10 dd3d
000001d0: 7731 9fbd 834e a8b9 63d4 5a3d 4481 f7bc
000001e0: 200b f8bd 186a be3c 9e96 e0bc d733 a3bd
000001f0: c2dd 3b3d cf79 473c 8279 b13c a2eb cbbd
00000200: 4c9b a0be 4594 6bbd 6d75 cabd c040 d43d
00000210: bfd5 83be 55bc 0ebe 7a84 af3d afd5 63be
00000220: 00ef 41be f023 d8bd 00e3 11bd 195b 3abe
00000230: a163 cabd 643a 043d 9022 843a 865d f6bd
00000240: 1ecf b23d 2bcc 0cbe 9769 0b3c 4717 0cbd
00000250: ff73 10be d077 963d

net.6.bias f4 [3]
-0.101902395 -0.10266615 -0.050675996
00000000: 34b2 d0bd a142 d2bd a291 4fbd
