model_bad_old.pth (torch, 44043 bytes, 8 tensors)

net.0.weight f4 [50, 100]
0.007433413 0.007905602 0.07044048 -0.08662336 0.049612332 -0.021965407 -0.069028385 -0.007979827
0.05213699 0.053874936 0.0129660815 -0.03765512 -0.033880852 0.038525745 0.048230708 0.1337099
-0.10468668 -0.07070753 -0.07272957 0.04755462 0.034562826 -0.089152224 0.07809202 -0.025586933
-0.045034714 -0.03585047 -0.0030060846 -0.161393 -0.04088229 0.020828623 0.0074395686 0.04001235
-0.027646258 -0.17484488 -0.116986856 -0.015886644 -0.09161588 -0.021146014 -0.06727706 0.13432202
0.029409422 0.004799139 -0.02751707 -0.01876011 -0.032692134 -0.046120033 -0.063687846 0.0032339422
0.033316366 0.08375671 0.039994564 0.055322904 -0.030145127 0.00929551 -0.06846777 -0.19298354
-0.11903028 -0.19054991 -0.23530972 0.0515191 0.0759634 -0.05572937 -0.023843287 -0.12468281
-0.07028976 -0.013477729 -0.022229519 -0.09777394 0.061292335 0.10076398 -0.026669126 0.0844505
0.01921895 -0.021066897 -0.2103953 -0.12242373 0.09659597 -0.004638464 -0.035425156 -0.010150225
-0.021345375 0.026864257 0.030068472 0.04622237 -0.031456836 -0.00779198 0.026592135 -0.010697529
0.09241842 -0.051188305 -0.021123037 0.08608707 -0.043590173 0.012450206 -0.099253945 0.13499422
0.005814337 -0.047137715 -0.0036055008 -0.017307574 -0.030882908 0.080182575 -0.096889876 0.005439927
-0.15131982 0.045794696 -0.14948647 0.040510394 0.0668448 -0.0034801385 0.06318236 -0.06531542
0.038261265 -0.13234732 0.040656053 0.066507705 -0.04350797 -0.0013542601 0.06028677 0.13543527
0.05260729 -0.090319574 0.053050715 0.07170573 -0.006823331 0.0062264167 -0.11823254 0.05373095
0.023709945 -0.035194132 0.056511555 0.09149741 0.016165946 -0.15534976 -0.09403798 0.035219878
-0.04177806 -0.012087238 -0.120021686 -0.017932622 0.07984987 -0.013323239 -0.0600772 0.058249038
-0.07778541 -0.046995185 -0.007808504 -0.11698083 0.011533685 0.023162318 0.069829285 -0.10410101
0.039502192 0.043747187 -0.17468 -0.16169733 0.0032840874 -0.080578215 -0.011257949 -0.07092949
-0.062045064 -0.10862358 0.0970587 -0.018020406 -0.04382929 -0.1632741 -0.18057106 -0.08062375
-0.06525666 0.014642241 0.016142102 -0.096474335 -0.10266891 -0.021639368 -0.08609964 -0.1916614
0.07702379 -0.07721528 -0.07770113 0.06425932 -0.004466283 0.04749919 -0.05824906 -0.06948684
0.037116375 0.035075247 -0.10696332 0.017003778 -0.028830362 0.054275297 -0.060001425 -0.043174863
-0.03453541 0.024428677 0.07912087 0.105956756 -0.041907214 0.080541216 -0.00535085 0.060482968
-0.060007513 0.046486117 -0.032212898 0.0861737 -0.095256284 -0.085456796 0.06670019 -0.10795952
-0.00033492915 0.07270741 0.018714465 0.06792427 -0.01605171 0.04157505 -0.09099151 -0.15032753
-0.03641684 -0.05178734 -0.05185631 0.13224047 -0.049324807 -0.025128948 -0.06319797 0.015236452
0.100162975 -0.018680757 0.020845333 0.043334838 0.059374746 0.061480783 0.037952065 -0.022629926
-0.10977056 0.014168802 -0.08378249 -0.0065430547 0.012928731 -0.061685555 -0.07979809 0.011149309
-0.015523829 -0.08167395 -0.019101094 0.06673385 0.0105550205 -0.04807705 -0.060577434 -0.08600244
0.06556469 0.04321847 -0.01477234 0.08950074 -0.052964162 0.016907485 -0.04770618 -0.0034416497
00000000: fd93 f33b 8086 013c 1943 903d 9767 b1bd
00000010: 4d36 4b3d ccf0 b3bc c15e 8dbd d2bd 02bc
00000020: 998d 553d f7ab 5c3d b06f 543c 413c 1abd
00000030: a6c6 0abd 2ccd 1d3d 908d 453d 3feb 083e
00000040: f865 d6bd 1ccf 90bd 3ef3 94bd a2c8 423d
00000050: c091 0d3d 7195 b6bd b5ee 9f3d b09b d1bc
00000060: 5276 38bd f1d7 12bd bb01 45bb 3544 25be
00000070: 3074 27bd caa0 aa3c a0c7 f33b fde3 233d
00000080: 687a e2bc 890a 33be ce96 efbd b524 82bc
00000090: 1ba1 bbbd 683a adbc 8ec8 89bd b68b 093e
000000a0: 07ec f03c 1942 9d3b 7a6b e1bc cdae 99bc
000000b0: 30e8 05bd 5ce8 3cbd c66e 82bd 8cf0 533b
000000c0: be76 083d a388 ab3d 57d1 233d 459a 623d
000000d0: eaf2 f6bc 324c 183c d538 8cbd 7a9d 45be
000000e0: 26c6 f3bd 841f 43be 08f5 70be b105 533d
000000f0: b392 9b3d 7b44 64bd ff52 c3bc b359 ffbd
00000100: 14f4 8fbd b1d1 5cbc ae1a b6bc b43d c8bd
00000110: ac0d 7b3d 585d ce3d 3679 dabc 62f4 ac3d
00000120: 0f71 9d3c 7c94 acbc de71 57be 4bb9 fabd
00000130: 1cd4 c53d 42fe 97bb f819 11bd 214d 26bc
00000140: 7fdc aebc 6e12 dc3c 2852 f63c ab53 3d3d
00000150: e2d8 00bd de53 ffbb c0d7 d93c b044 2fbc
00000160: de45 bd3d d4aa 51bd 380a adbc 6b4e b03d
00000170: 9c8b 32bd f3fb 4b3c a745 cbbd ed3b 0a3e
00000180: 3286 be3b 7a13 41bd 444a 6cbb 9dc8 8dbc
00000190: 27fe fcbc c336 a43d 336e c6bd 6a41 b23b
000001a0: 95f3 1abe 3893 3b3d fb12 19be 3aee 253d
000001b0: ede5 883d 0913 64bb c165 813d 17c4 85bd
000001c0: d8b7 1c3d 0e86 07be f686 263d 3135 883d
000001d0: 6a35 32bd 6e81 b1ba 43ef 763d 8baf 0a3e
000001e0: be7a 573d 78f9 b8bd b54b 593d 74da 923d
000001f0: 4096 dfbb f806 cc3b e723 f2bd fc14 5c3d
00000200: 5c3b c23c b927 10bd a978 673d fe62 bb3d
00000210: 726e 843c 0214 1fbe fc96 c0bd b842 103d
00000220: 791f 2bbd 8d09 46bc eecd f5bd 6fe7 92bc
00000230: 5488 a33d b749 5abc 8313 76bd 8b96 6e3d
00000240: f54d 9fbd 067e 40bd 7bde ffbb a593 efbd
00000250: c8f7 3c3c e7be bd3c a802 8f3d e932 d5bd
00000260: 0dcd 213d 4030 333d 50df 32be fc93 25be
00000270: d839 573b 3106 a5bd 4373 38bc 7b43 91bd
00000280: f722 7ebd 0a76 debd b6c6 c63d 889f 93bc
00000290: 5786 33bd 5331 27be 9fe7 38be 111e a5bd
000002a0: 49a5 85bd 03e6 6f3c 713c 843c 5694 c5bd
000002b0: 1444 d2bd 0b45 b1bc 0255 b0bd e342 44be
000002c0: a6be 9d3d 0b23 9ebd c521 9fbd 649a 833d
000002d0: e659 92bb 838e 423d 9196 6ebd 1e4f 8ebd
000002e0: 5707 183d 10ab 0f3d 960f dbbd 824b 8b3c
000002f0: a72d ecbc c64f 5e3d 0ec4 75bd 20d8 30bd
00000300: 0175 0dbd a61e c83c 1f0a a23d dbff d83d
00000310: e6a6 2bbd cbf2 a43d 2f56 afbb fdbc 773d
00000320: 70ca 75bd 3a68 3e3d acf1 03bd d67b b03d
00000330: ba15 c3bd f903 afbd 1c9a 883d e119 ddbd
00000340: 6e99 afb9 9fe7 943d 144f 993c e11b 8b3d
00000350: e07e 83bc 9a4a 2a3d c259 babd 76ef 19be
00000360: d329 15bd f61e 54bd 4867 54bd 0c6a 073e
00000370: cf08 4abd 39db cdbc f06d 81bd 50a2 793c
00000380: 3f22 cd3d 6308 99bc d5c3 aa3c df7f 313d
00000390: ef32 733d 46d3 7b3d a073 1b3d 6562 b9bc
000003a0: 63cf e0bd 4324 683c 2796 abbd 1f67 d6bb
000003b0: 07d3 533c fea9 7cbd 2e6d a3bd 97ab 363c
000003c0: a857 7ebc ac44 a7bd e679 9cbc c2ab 883d
000003d0: f7ee 2c3c 71ec 44bd 0b20 78bd 0c22 b0bd
000003e0: c846 863d da05 313d af07 72bc 2a4c b73d
000003f0: f3f0 58bd 9181 8a3c 8e67 43bd 4d8d 61bb

net.0.bias f4 [50]
0.039842732 0.19739348 0.011025437 0.08626562 0.23281546 0.22603366 -0.05652289 0.14152607
0.14256705 0.07383132 0.028145196 0.032607295 0.10501381 0.08945944 0.13957442 0.0322856
0.19552755 0.1861154 0.017992685 0.094886295 0.23273107 0.07534693 0.06645164 0.1707221
0.10708598 0.021770185 0.08209266 0.07635383 0.16772646 0.22836353 0.071564004 0.005878338
0.11246457 0.080603525 0.12472331 0.22200058 0.17710978 0.29059356 -0.10154866 0.17404799
0.01901182 0.2145819 0.22060253 0.03501933 0.24159428 0.03557569 0.17313305 0.21162997
-0.00829582 0.28653276
00000000: 2232 233d 8421 4a3e 09a4 343c 08ac b03d
00000010: 2d67 6e3e 5e75 673e 8c84 67bd 36ec 103e
00000020: 19fd 113e e034 973d c190 e63c 3a8f 053d
00000030: 7b11 d73d 8336 b73d 99ec 0e3e e83d 043d
00000040: 6038 483e 0995 3e3e 6565 933c bf53 c23d
00000050: 0e51 6e3e 7e4f 9a3d cc17 883d c6d1 2e3e
00000060: e54f db3d 6357 b23c 3220 a83d 665f 9c3d
00000070: 7cc0 2b3e 21d8 693e 2690 923d 139f c03b
00000080: d353 e63d 7613 a53d ef6e ff3d 1f54 633e
00000090: 445c 353e aec8 943e bef8 cfbd a339 323e
000000a0: adbe 9b3c 5cbb 5b3e a1e5 613e 6e70 0f3d
000000b0: 7e64 773e d1b7 113d ca49 313e 87b5 583e
000000c0: 31eb 07bc 6cb4 923e

net.2.weight f4 [50, 50]
0.1318272 -0.13044234 -0.07744019 -0.009109562 0.084064536 0.10017887 0.027707146 0.013195274
0.04938188 -0.11842303 -0.043827876 -0.11603587 -0.009208637 0.0016343571 0.17141826 0.055356126
0.048827194 -0.038120095 -0.055288073 0.13924566 0.010318495 0.1071723 -0.011059987 0.0031160922
0.16513914 0.08680375 0.10198902 0.049987737 0.036475595 -0.0099249715 0.07361549 -0.04422797
-0.0590818 -0.08750472 0.13847974 0.106398486 0.106830105 0.06812627 0.0020867384 0.12753539
0.10349726 0.022528403 0.15700637 0.07984288 0.18902844 0.080589734 0.08126729 0.16906728
-0.06851946 0.16195042 0.04183987 0.090625905 0.122754775 0.0043195756 0.16053241 -0.031163424
0.067282766 0.1322993 -0.05074242 0.0076374877 0.113146245 0.08327088 0.12169749 0.053542227
0.04154562 0.06637047 0.0006822813 0.05971887 0.101041794 0.025113657 0.23581296 -0.0152175035
0.20023924 0.029949378 0.19021496 -0.011413699 0.076563135 0.06391798 0.008319892 -0.0041571716
0.00071919727 0.09577963 -0.0048596505 -0.031265736 0.08665533 0.22807352 0.097960226 0.21094038
-0.01774334 0.03444639 0.05646291 0.12921596 0.08848935 0.12984428 -0.03451927 0.16699558
0.11847705 0.16743623 0.010839695 0.1500187 0.0026689225 0.037162527 -0.016948298 0.037241764
0.21155506 -0.022845672 0.12512329 -0.043459106 0.15204674 0.019235661 0.08914006 0.07415464
0.01044575 0.002339268 -0.019249057 0.048215657 0.09969497 0.062672384 0.12036323 -0.043212242
0.007620034 0.17840254 -0.031728785 0.05999659 0.004946746 -0.083020665 -0.014913737 0.030587096
-0.11052694 0.15484798 0.08038933 0.14811772 0.2138578 0.03770708 -0.017723825 0.19379526
0.16880323 -0.02745823 0.09877679 0.18409698 -0.023487663 0.22482684 -0.057967115 -0.038041927
0.02467576 0.06017885 0.12216917 0.13921614 0.0056920643 -0.048105046 -0.034157768 0.13984802
0.18908167 0.25630176 -0.00085253705 0.083950125 -0.09850461 0.119723484 0.20830172 0.08184631
0.038924504 0.006249269 0.091809444 -0.04788456 0.014965888 -0.012826508 0.10572552 0.12314503
-0.048032086 0.06169412 -0.038467936 0.09753064 -0.009011364 0.1487257 0.1907669 -0.07569308
0.23369284 -0.016047234 -0.0065508056 0.12648952 0.1292043 -0.0145814335 0.21453972 0.1131103
-0.01651807 0.15509018 0.18883601 0.16846277 0.06751648 0.042354878 -0.025717385 0.0901198
0.13653105 0.054527897 0.03304692 0.14128283 0.17872195 0.020465696 0.18861927 0.12895331
-0.052693516 -0.08591366 -0.13023165 -0.12495666 -0.16697691 0.09762463 0.07793115 0.091310285
-0.0178115 -0.12581325 -0.036075722 -0.091783606 -0.1660901 0.11211993 -0.056167174 0.00022719619
-0.10144623 -0.112917416 -0.013244495 -0.14438869 -0.09437609 -0.05514285 -0.049355336 -0.08851934
0.041069712 0.09143002 -0.08863758 -0.15908559 -0.14761786 -0.042599298 -0.106295355 -0.0066230423
-0.01916458 -0.08229599 -0.044415627 0.0523276 0.027257113 -0.11409491 -0.06364344 -0.028925816
-0.0069642277 0.11938609 0.03193898 0.052237216 -0.070256986 -0.07856144 -0.04237978 -0.16121387
-0.12955879 0.015727546 0.0017775559 0.078634076 0.06500572 0.21606229 0.09155187 0.12036472
00000000: b6fd 063e ad92 05be f698 9ebd 4640 15bc
00000010: 072a ac3d 942a cd3d 19fa e23c fe30 583c
00000020: a744 4a3d c687 f2bd dc84 33bd 37a4 edbd
00000030: d3df 16bc ed37 d63a 4588 2f3e 1bbd 623d
00000040: 06ff 473d d123 1cbd bf75 62bd 6a96 0e3e
00000050: e80e 293c 277d db3d f334 35bc 5a37 4c3b
00000060: 3c1a 293e 2ac6 b13d 9fdf d03d f1bf 4c3d
00000070: 6f67 153d 599c 22bc b8c3 963d 6328 35bd
00000080: c2ff 71bd ad35 b3bd a2cd 0d3e 73e7 d93d
00000090: bec9 da3d c985 8b3d a9c1 083b a398 023e
000000a0: 5ff6 d33d 7c8d b83c 47c6 203e aa84 a33d
000000b0: ac90 413e 3b0c a53d 776f a63d f91f 2d3e
000000c0: ee53 8cbd 55d6 253e 4960 2b3d 139a b93d
000000d0: db66 fb3d 3a8b 8d3b 9c62 243e 704a ffbc
000000e0: 8ccb 893d 7879 073e 49d7 4fbd e443 fa3b
000000f0: 38b9 e73d ec89 aa3d 893c f93d 184f 5b3d
00000100: bd2b 2a3d 3eed 873d 1fdb 323a c69b 743d
00000110: 00ef ce3d 28bb cd3c f478 713e d652 79bc
00000120: 840b 4d3e 6658 f53c b6c7 423e 8600 3bbc
00000130: 22cd 9c3d 6ee7 823d 2850 083c e238 88bb
00000140: 8388 3c3a 1c28 c43d b43d 9fbb 8010 00bd
00000150: 5a78 b13d 1b8c 693e 5f9f c83d c100 583e
00000160: 7b5a 91bc a817 0d3d a745 673d 3051 043e
00000170: e839 b53d e6f5 043e 1464 0dbd e400 2b3e
00000180: 18a4 f23d 6774 2b3e fa98 313c 819e 193e
00000190: 17e9 2e3b bc37 183d 28d7 8abc d28a 183d
000001a0: e4a1 583e d926 bbbc 5220 003e 2d02 32bd
000001b0: 24b2 1b3e 1b94 9d3c 108f b63d 63de 973d
000001c0: a724 2b3c 684e 193b 33b0 9dbc c87d 453d
000001d0: e02c cc3d 615a 803d ff80 f63d 52ff 30bd
000001e0: 7ab1 f93b 28af 363e 0bf6 01bd fcbe 753d
000001f0: 5018 a23b bd06 aabd bf58 74bc ca91 fa3c
00000200: f35b e2bd 7890 1e3e 29a3 a43d 2cac 173e
00000210: 8afd 5a3e bd72 1a3d 8e31 91bc 4472 463e
00000220: c1da 2c3e 15f0 e0bc 7c4b ca3d eb83 3c3e
00000230: 3369 c0bc 0239 663e ed6e 6dbd dad1 1bbd
00000240: d224 ca3c 197e 763d d433 fa3d ad8e 0e3e
00000250: 7f84 ba3b cc09 45bd 04e9 0bbd 5234 0f3e
00000260: a09e 413e fc39 833e cb7c 5fba 0bee ab3d
00000270: c9bc c9bd 9631 f53d 0c4d 553e 0a9f a73d
00000280: 4d6f 1f3d abc6 cc3b 9706 bc3d 9a22 44bd
00000290: 7c33 753c 4626 52bc 9f86 d83d 7633 fc3d
000002a0: 4bbd 44bd f9b2 7c3d 8e90 1dbd 25be c73d
000002b0: 66a4 13bc 8d4b 183e 6658 433e f904 9bbd
000002c0: 2d4d 6f3e 7d75 83bc 24a8 d6bb 7886 013e
000002d0: 224e 043e f7e6 6ebc 4db0 5b3e 5fa6 e73d
000002e0: e750 87bc f6cf 1e3e 3a5e 413e 8181 2c3e
000002f0: 1546 8a3d 4f7c 2d3d 44ad d2bc bb90 b83d
00000300: ccce 0b3e a558 5f3d 355c 073d 72ac 103e
00000310: e302 373e ada7 a73c 6925 413e 560c 043e
00000320: 28d5 57bd 80f3 afbd 725b 05be 47e9 ffbd
00000330: fffb 2abe 6cef c73d 5e9a 9f3d e300 bb3d
00000340: 6ce9 91bc 30d5 00be 23c4 13bd 0bf9 bbbd
00000350: 8613 2abe 229f e53d 8d0f 66bd 833b 6e39
00000360: 0bc3 cfbd 3f41 e7bd 70ff 58bc a1da 13be
00000370: 4048 c1bd 78dd 61bd d228 4abd a149 b5bd
00000380: b738 283d aa3f bb3d 9f87 b5bd 55e7 22be
00000390: 2329 17be 9a7c 2ebd 61b1 d9bd 1b06 d9bb
000003a0: 0aff 9cbc cd8a a8bd 29ed 35bd 7755 563d
000003b0: 4f4a df3c 98aa e9bd 7e57 82bd d5f5 ecbc
000003c0: 2d34 e4bb b280 f43d 73d2 023d b1f6 553d
000003d0: e5e2 8fbd d2e4 a0bd 6c96 2dbd 4015 25be
000003e0: 0fab 04be 0ed7 803c e1fc e83a e70a a13d
000003f0: b821 853d 6f3f 5d3e 8c7f bb3d c781 f63d

net.2.bias f4 [50]
0.083327614 0.21457025 0.28379932 0.057516053 -0.003919747 0.32577384 0.19057007 -0.04567664
0.21252744 0.1293363 0.089299105 0.03864732 -0.06770543 0.016131362 -0.10799369 0.16478986
0.2232366 0.19450203 0.13085668 0.21062842 0.1180733 0.05827284 -0.10101924 0.076175846
0.18775935 -0.15297237 -0.13063677 0.04030448 0.31679794 -0.14871319 0.09109298 -0.13939764
0.086550936 0.2568982 0.09464881 0.063754044 0.12710369 -0.12518202 0.23173748 0.06876336
0.07674049 0.16255182 0.18088683 -0.10679573 0.07180199 0.17793109 -0.046291508 0.18087195
-0.0137538845 -0.0633751
00000000: aba7 aa3d 4eb8 5b3e 254e 913e f495 6b3d
00000010: 3971 80bb d4cb a63e cd24 433e 6e17 3bbd
00000020: cba0 593e bc70 043e 73e2 b63d a74c 1e3d
00000030: 25a9 8abd eb25 843c cc2b ddbd acbe 283e
00000040: 2398 643e 8a2b 473e 4bff 053e faae 573e
00000050: 6ad0 f13d 80af 6e3d 2de3 cebd 1502 9c3d
00000060: fd43 403e caa4 1cbe a5c5 05be 4f16 253d
00000070: 5733 a23e 4548 18be f58e ba3d 41be 0ebe
00000080: 9e41 b13d 2988 833e 3cd7 c13d 7b91 823d
00000090: 7827 023e b72f 00be 974c 6d3e ced3 8c3d
000000a0: 1e2a 9d3d fc73 263e 663a 393e b8b7 dabd
000000b0: ec0c 933d 9133 363e 2a9c 3dbd 7f36 393e
000000c0: f957 61bc ceca 81bd

net.4.weight f4 [50, 50]
0.16703792 0.13769563 0.13808072 0.06895143 -0.008248087 0.08417338 0.21810833 -0.055745587
0.13805993 0.061180804 -0.031259246 0.0049771736 -0.0343072 -0.114369996 0.16193199 0.019942902
0.19301926 0.16305488 0.114502266 0.06769605 0.25016013 0.040010158 0.04763929 0.123280175
0.11523706 0.25802812 0.043975856 -0.06745272 0.15402505 -0.07873156 0.18624114 -0.11441597
0.1520762 0.14426516 0.026578583 0.06691065 0.08819328 -0.033889804 -0.0050680363 0.033167485
0.2398485 0.18248677 0.20493585 0.053595047 0.0070417617 0.15585692 0.103155114 0.14811057
0.08042111 -0.0036684365 0.07936154 0.06034352 -0.08273421 0.038002715 -0.13038313 -0.034231402
-0.027058579 -0.072017 0.08648817 -0.12996389 0.03268391 -0.11593703 -0.048963144 -0.019213296
-0.041836888 -0.118442684 0.077543646 -0.026831493 -0.016213939 -0.05347073 -0.053711742 0.11372833
0.08068396 -0.13961406 -0.1001308 0.1328611 -0.022831202 0.028034925 0.10810794 0.1165583
-0.093784496 0.00936237 0.06479159 -0.032593593 -0.12958474 0.13182653 -0.008253232 0.11932115
0.122013524 -0.041530475 -0.026837818 -0.015397474 0.08022109 0.04470627 -0.029393665 0.013975173
-0.045821115 0.067269504 0.013860807 -0.10406417 0.07595721 -0.0632913 0.0078974385 0.07341129
-0.11893681 -0.15053318 0.035821658 -0.1176793 -0.16137394 0.06878988 0.118005805 -0.12457785
0.11360698 0.057014525 -0.039542515 0.026598044 0.008166156 0.008179438 -0.07797317 -0.019150294
0.12304145 -0.041805316 0.04415542 -0.0049729 -0.016290635 0.07433241 0.046771526 0.070761725
0.011023277 0.12777905 -0.07006283 -0.12120183 0.07285812 0.05752486 -0.08801058 0.0719999
-0.11713365 -0.023921402 -0.090135865 0.061668728 -0.048679255 -0.06645501 -0.114251666 0.054661237
0.008957843 -0.035406392 -0.09104451 0.017293608 -0.10355215 0.030871265 -0.10320545 -0.03564088
-0.006015012 -0.09083984 -0.0910835 -0.019335777 0.07438038 0.12569942 -0.09309273 0.10774319
0.0151069965 -0.08097288 -0.02769371 0.13719685 -0.16060531 0.075146526 -0.05309258 -0.14416596
-0.09927076 -0.026075035 0.10652552 0.10161341 -0.051765718 -0.031928223 0.09457902 0.08585831
-0.10792015 0.027231732 0.02903343 0.053705692 -0.062375896 -0.038357846 0.008580574 0.030900218
0.07035473 0.0578822 0.014762317 -0.13735308 -0.11434911 0.053806942 -0.088944726 -0.12558225
0.04053853 0.06372376 0.022935946 -0.075352974 -0.10464536 -0.06688123 -0.05955604 -0.05406635
0.08266006 0.14022191 0.124059774 -0.0042747757 -0.020558361 0.26200995 0.16663063 -0.06858183
0.10284058 0.023882361 -0.037602022 0.032766543 0.012951737 0.13011403 0.11525898 0.12876803
0.08856492 0.054729175 -0.052282497 0.27217674 0.026708966 -0.007326377 -0.08196352 0.12808098
0.2209035 0.13163415 0.04566345 0.12010542 -0.0037149673 -0.013242107 0.09791255 0.10387932
0.16225931 0.20532788 0.2523867 0.051560167 0.07458093 -0.059959248 0.015698712 -0.06381073
0.22995041 0.1625098 0.23745959 0.02996772 0.014082808 0.096029215 0.1199056 0.19143419
-0.07573939 -0.08037868 0.003575866 -0.063212045 -0.02421183 0.11952056 -0.04469991 0.07430273
00000000: fd0b 2b3e 1500 0d3e 0865 0d3e 6836 8d3d
00000010: fc22 07bc 1863 ac3d ca57 5f3e 7c55 64bd
00000020: 955f 0d3e b998 7a3d b209 00bd 8f17 a33b
00000030: b585 0cbd d13a eabd 80d1 253e 4c5f a33c
00000040: d7a6 453e dcf7 263e 2a80 ea3d 3aa4 8a3d
00000050: fd14 803e b1e1 233d 6b21 433d 517a fc3d
00000060: 6801 ec3d 431c 843e 0720 343d a724 8abd
00000070: beb8 1d3e 033e a1bd ffb5 3e3e ec52 eabd
00000080: ddb9 1b3e 3fba 133e 54bb d93c 7308 893d
00000090: ae9e b43d 09d0 0abd c511 a6bb a1da 073d
000000a0: d89a 753e d0dd 3a3e b4da 513e 7b86 5b3d
000000b0: 94be e63b f598 1f3e fd42 d33d 4caa 173e
000000c0: d3b3 a43d 276a 70bb 4e88 a23d c42a 773d
000000d0: 8e70 a9bd bca8 1b3d 2883 05be 3a36 0cbd
000000e0: f4a9 ddbc a67d 93bd b620 b13d 4115 05be
000000f0: 90df 053d 6570 edbd 948d 48bd 3465 9dbc
00000100: 285d 2bbd 1492 f2bd 34cf 9e3d b8cd dbbc
00000110: 18d3 84bc 2004 5bbd d800 5cbd 66ea e83d
00000120: a23d a53d fdf6 0ebe 6011 cdbd bd0c 083e
00000130: 8008 bbbc 80a9 e53c b267 dd3d 1eb6 ee3d
00000140: 1612 c0bd a064 193c 74b1 843d dc80 05bd
00000150: ddb1 04be 89fd 063e 9038 07bc a65e f43d
00000160: 3ae2 f93d dc1b 2abd fcda dbbc b045 7cbc
00000170: f44a a43d ec1d 373d fcca f0bc 20f8 643c
00000180: ecae 3bbd 98c4 893d 7018 633c 981f d5bd
00000190: 748f 9b3d de9e 81bd 4264 013c a958 963d
000001a0: 2495 f3bd 5f25 1abe bbb9 123d d801 f1bd
000001b0: 363f 25be b5e1 8c3d 07ad f13d ac22 ffbd
000001c0: c7aa e83d 1088 693d 55f7 21bd 24e4 d93c
000001d0: 57cb 053c 0d03 063c 66b0 9fbd 14e1 9cbc
000001e0: 28fd fb3d 0d3c 2bbd 50dc 343d b5f3 a2bb
000001f0: f073 85bc 973b 983d 8093 3f3d 86eb 903d
00000200: fa9a 343c 83d8 023e 1a7d 8fbd aa38 f8bd
00000210: a336 953d 309f 6b3d e43e b4bd af74 933d
00000220: c4e3 efbd d1f6 c3bc 2799 b8bd 5998 7c3d
00000230: e663 47bd 9019 88bd c7fc e9bd 76e4 5f3d
00000240: ebc3 123c 4b06 11bd 8b75 babd 53ab 8d3c
00000250: 2613 d4bd bce5 fc3c 615d d3bd 2cfc 11bd
00000260: 9419 c5bb 3d0a babd fc89 babd 1066 9ebc
00000270: be54 983d 59b7 003e 67a7 bebd 76a8 dc3d
00000280: 5683 773c 1cd5 a5bd ebdd e2bc 557d 0c3e
00000290: b875 24be 6ce6 993d 9b77 59bd 3ea0 13be
000002a0: 784e cbbd 509b d5bc 0d2a da3d b11a d03d
000002b0: 4a08 54bd 2bc7 02bd a5b2 c13d 7bd6 af3d
000002c0: 3d05 ddbd 1515 df3c 84d7 ed3c 80fa 5b3d
000002d0: de7d 7fbd 1e1d 1dbd 8995 0c3c 7422 fd3c
000002e0: 2416 903d e315 6d3d a5dd 713c 49a6 0cbe
000002f0: de2f eabd ab64 5c3d a728 b6bd a298 00be
00000300: bb0b 263d 9a81 823d 2ae4 bb3c a952 9abd
00000310: 4e50 d6bd 07f9 88bd 09f1 73bd ad74 5dbd
00000320: ad49 a93d 5596 0f3e 0d13 fe3d 6b13 8cbb
00000330: 026a a8bc 2b26 863e 38a1 2a3e a174 8cbd
00000340: 159e d23d f1a4 c33c 9404 1abd 3636 063d
00000350: 8633 543c 9d3c 053e e60c ec3d c4db 033e
00000360: 8661 b53d b32b 603d 2c26 56bd c05a 8b3e
00000370: c3cc da3c 1b12 f0bb 7ddc a7bd a927 033e
00000380: 8734 623e 1acb 063e 9909 3b3d d5f9 f53d
00000390: cf76 73bb 6cf5 58bc 6086 c83d aebe d43d
000003a0: 4e27 263e 7941 523e d438 813e c130 533d
000003b0: e3bd 983d d497 75bd 969a 803c 33af 82bd
000003c0: 1f78 6b3e f868 263e 9b28 733e dd7e f53c
000003d0: 94bb 663c f7aa c43d 1191 f53d 5307 443e
000003e0: 411d 9bbd 949d a4bd 1459 6a3b 5175 81bd
000003f0: e357 c6bc 32c7 f43d 4117 37bd 082c 983d

net.4.bias f4 [50]
0.17963473 -0.13468513 0.041762337 0.012404827 0.24796598 0.18702655 0.0331072 0.209233
-0.15321435 -0.120323226 0.12013432 0.037663907 -0.17859451 0.13114646 -0.09117466 -0.042009167
0.20966333 0.12849784 0.14285858 0.12040317 0.07810911 0.06478153 -0.08687175 0.049547166
0.122595735 0.054755002 0.1768364 0.08209272 0.1619887 0.057602156 -0.02256269 0.043470465
0.13331994 -0.018800754 -0.049766082 -0.14230615 0.2004515 0.023099385 -0.1409485 0.052967474
-0.12744248 -3.3621975e-05 -0.019883972 -0.15524018 -0.007988281 0.03909493 -0.139648 0.16684785
-0.03621025 -0.06091339
00000000: 2bf2 373e e6ea 09be fc0e 2b3d 9e3d 4b3c
00000010: cbea 7d3e e383 3f3e 6a9b 073d 2d41 563e
00000020: 39e4 1cbe 066c f6bd fb08 f63d 7845 1a3d
00000030: 7be1 36be 424b 063e c8b9 babd ce11 2cbd
00000040: fcb1 563e f094 033e 8549 123e f095 f63d
00000050: abf7 9f3d 2eac 843d d1e9 b1bd f8f1 4a3d
00000060: 7913 fb3d c846 603d 9a14 353e 3a20 a83d
00000070: 5ee0 253e 3df0 6b3d 64d5 b8bc 160e 323d
00000080: 0685 083e 0a04 9abc 85d7 4bbd b4b8 11be
00000090: 2843 4d3e ec3a bd3c ce54 10be 6cf4 583d
000000a0: 4880 02be 5205 0db8 b6e3 a2bc 48f7 1ebe
000000b0: 47e1 02bc 0122 203d e3ff 0ebe 2ada 2a3e
000000c0: 3351 14bd 5280 79bd

net.6.weight f4 [3, 50]
-0.06624719 0.10435085 0.084097125 0.022384515 -0.15773973 -0.08540992 -0.08482737 -0.16323063
0.1161993 -0.08147974 -0.119333945 -0.09260234 -0.07386397 -0.18397373 -0.08631039 0.037340343
-0.11614072 -0.007342913 -0.21786664 -0.21075903 0.0069488133 -0.049848516 0.06707679 -0.19842918
-0.15549855 0.080303915 -0.22203542 0.020653943 -0.2296113 0.083577156 -0.03257732 0.061343458
-0.06869365 0.106287055 -0.03477004 0.014289418 -0.10418853 -0.23624136 -0.06659226 0.12966686
0.0014340878 -0.013329176 0.06717817 -0.04678783 0.060634397 -0.09166734 -0.027125627 -0.024970112
0.020271465 -0.13812548 -0.19981274 -0.06805106 -0.024178434 0.061179455 -0.17401119 -0.054241713
-0.23664908 -0.050776392 0.04328028 -0.12836345 0.08603997 0.11743439 -0.020804096 0.01039162
0.038957957 0.12086111 -0.108717345 -0.14123641 -0.08462255 -0.15735802 0.053665064 0.107112624
-0.017852616 -0.047415506 -0.21820374 0.09107559 -0.059138425 0.0052454206 -0.14730026 0.037840825
0.025676519 -0.044374023 -0.09848454 0.036480032 0.038984094 0.035540264 -0.1098783 -0.14176579
0.04634072 0.13214949 0.007199943 0.050916072 0.07568708 0.101450704 -0.017239008 -0.21732542
-0.12828915 -0.2215316 -0.121259175 0.12797992 -0.122687265 0.031378537 0.09654834 -0.0011360181
-0.101805925 -0.1462802 -0.29142976 -0.15788415 -0.053116046 -0.009179026 0.06524314 0.09893264
0.018488836 -0.18694825 0.11491729 -0.118463024 -0.20603165 -0.00070884137 -0.08233213 0.019909196
-0.026016764 0.053031225 0.100017436 -0.1608538 -0.013879602 0.07255808 -0.057236556 0.13951552
-0.06387855 -0.089207225 0.070664436 0.07816535 -0.012107768 0.12837325 -0.06173482 -0.034226324
-0.26962262 -0.0074054184 -0.086991385 0.0531426 0.009872809 0.07960901 -0.0067877076 -0.026540682
-0.059969466 -0.04620228 0.0031983107 -0.22576544 -0.03251887 -0.14018157
00000000: 9bac 87bd e6b5 d53d 1d3b ac3d bb5f b73c
00000010: 8686 21be 65eb aebd f9b9 adbd ee25 27be
00000020: e6f9 ed3d dade a6bd 5b65 f4bd 4ca6 bdbd
00000030: fe45 97bd 9c63 3cbe 80c3 b0bd 30f2 183d
00000040: 30db edbd d29c f0bb 6f18 5fbe 37d1 57be
00000050: dfb2 e33b f52d 4cbd 8e5f 893d 0531 4bbe
00000060: 033b 1fbe 6176 a43d 415d 63be 7532 a93c
00000070: 3a1f 6bbe 802a ab3d cc6f 05bd 4743 7b3d
00000080: 42af 8cbd 07ad d93d 086b 0ebd 2a1e 6a3c
00000090: cc60 d5bd 41e9 71be 8661 88bd 64c7 043e
000000a0: 00f8 bb3a 9e62 5abc b594 893d 98a4 3fbd
000000b0: c65b 783d 16bc bbbd 9036 debc 1f8e ccbc
000000c0: 5810 a63c c470 0dbe b69b 4cbe 5b5e 8bbd
000000d0: da11 c6bc 4f97 7a3d fd2f 32be 8f2c 5ebd
000000e0: 2354 72be e8fa 4fbd aa46 313d b571 03be
000000f0: b935 b03d 7181 f03d 5a6d aabc 9d41 2a3c
00000100: 6192 1f3d 0886 f73d 33a7 debd 47a0 10be
00000110: 964e adbd 7622 21be e6cf 5b3d dd5d db3d
00000120: a63f 92bc c336 42bd cd70 5fbe d785 ba3d
00000130: 223b 72bd c7e1 ab3b e1d5 16be fbfe 1a3d
00000140: 9057 d23c 89c1 35bd 43b2 c9bd 166c 153d
00000150: c9ad 1f3d ab92 113d e007 e1bd 0d2b 11be
00000160: c4cf 3d3d 3252 073e 80ed eb3b 5f8d 503d
00000170: d401 9b3d 63c5 cf3d d238 8dbc 8e8a 5ebe
00000180: 3b5e 03be 2ed9 62be bb56 f8bd 2b0d 033e
00000190: 7643 fbbd c886 003d 23bb c53d 71e6 94ba
000001a0: a07f d0bd 7aca 15be 4836 95be 62ac 21be
000001b0: 3690 59bd a063 16bc 329e 853d 329d ca3d
000001c0: e675 973c 5d6f 3fbe c259 eb3d be9c f2bd
000001d0: f6f9 52be 8ad1 39ba bf9d a8bd 9c18 a33c
000001e0: 1c21 d5bc 4537 593d f1d5 cc3d dcb6 24be
000001f0: 4567 63bc 5599 943d e170 6abd 28dd 0e3e
00000200: c2d2 82bd 47b2 b6bd 84b8 903d 2815 a03d
00000210: a95f 46bc 4774 033e a7dd 7cbd e730 0cbd
00000220: fa0b 8abe 27a9 f2bb 8a28 b2bd 0eac 593d
00000230: 90c1 213c 0c0a a33d 6b6b debb d86b d9bc
00000240: 8ba2 75bd 9a3e 3dbd c09a 513b 0e2f 67be
00000250: 8232 05bd c28b 0fbe

net.6.bias f4 [3]
-0.025857765 0.06026171 -0.10683257
00000000: aad3 d3bc fcd4 763d 09cb dabd
