model.pth (torch, 43899 bytes, 8 tensors)

net.0.weight f4 [50, 100]
0	0x3da3f058	0.08004826
1	0x3e09f3f7	0.13471971
2	0x3cc60356	0.024171513
3	0x3d0cbb2d	0.034358192
4	0x3dea2e04	0.11434558
5	0x3d918946	0.07106261
6	0x3d98d5b4	0.07462636
7	0xbcf1885d	-0.029483968
8	0x3e147dcd	0.14501114
9	0x3d7a6edf	0.06114089
10	0xbb813266	-0.0039427755
11	0xbe1b405f	-0.15161274
12	0xbdb9f1dd	-0.09079335
13	0xbbddd3fc	-0.0067696553
14	0xbe37adbb	-0.17937367
15	0xbda72728	-0.08161765
16	0xbc04bf90	-0.008102313
17	0x3d7630ad	0.060105015
18	0x3d28a1b3	0.041169833
19	0x3da05ebc	0.07830569
20	0x3d29cbd0	0.041454136
21	0xbd875877	-0.0660867
22	0xbcc1e235	-0.023667434
23	0xbe2dc481	-0.16969492
24	0xbdc1dc77	-0.094658785
25	0x3d23b326	0.03996577
26	0xbda9614d	-0.08270512
27	0xbc9410d2	-0.018074427
28	0x3c406012	0.011741655
29	0xbd93fc0a	-0.07225807
30	0x3d441917	0.04787549
31	0x3e075032	0.13214186
32	0xbe267527	-0.16255628
33	0xbdc401f1	-0.09570683
34	0x3d29e1a9	0.041474972
35	0xbdf938fb	-0.12169071
36	0xbd670cd3	-0.056408715
37	0xbe6b9e6d	-0.23009653
38	0x3e23b902	0.15988544
39	0xbda3b929	-0.07994301
40	0xbcfa00a3	-0.030517882
41	0xbd64a299	-0.055819128
42	0xbd0e0441	-0.034672026
43	0xbe1e8baa	-0.15482965
44	0xbe1299cb	-0.1431648
45	0x3bc4ba50	0.0060036555
46	0x3cb0a045	0.021560797
47	0xbcc6b717	-0.024257226
48	0xbba79938	-0.0051147006
49	0xbd3fc4a2	-0.046818383
50	0x3cf08eed	0.029365027
51	0xbd9d3150	-0.07675421
52	0xbd868e17	-0.0657007
53	0x3cc7e18f	0.024399547
54	0xbdafd047	-0.085846476
55	0xbe2ee0ea	-0.17077985
56	0xbda39626	-0.07987623
57	0x3a172df1	0.00057670387
58	0xbdc98906	-0.09840588
59	0x3d0a48dd	0.033760894
60	0xbe008cfb	-0.1255378
61	0x3dd1f83e	0.102524266
62	0x3dd7b877	0.10533231
63	0xbd7e899a	-0.062142946
64	0xbc5ced5c	-0.013484325
65	0xbc8105c6	-0.015749823
66	0x3d6ea43c	0.058262095
67	0xbd6da302	-0.058016784
68	0x3d3bb365	0.04582538
69	0x3d5a84bb	0.053349238
70	0x3dca876d	0.09889112
71	0xbd4a65ee	-0.049413614
72	0xbc6932d4	-0.01423331
73	0x3d37e2ec	0.044894144
74	0xbe0c57ff	-0.13705443
75	0xbe03d6b5	-0.12874873
76	0xbd7383a7	-0.059451725
77	0xbcb99177	-0.02265237
78	0x3d30fb3d	0.04320835
79	0xbd821a16	-0.06352632
80	0x3d97d6cf	0.07414018
81	0xbce0027f	-0.02734494
82	0xbe1eaa2c	-0.15494603
83	0x3cf2cd3c	0.029638879
84	0x3dc2dd45	0.0951486
85	0x3d6d4475	0.057926614
86	0xbdff8b3f	-0.12477731
87	0xbe3f0d44	-0.18657404
88	0xbd2c1e3a	-0.042021014
89	0x3c7e5ccc	0.015525054
90	0x3da24366	0.079230115
91	0xbad9b87d	-0.0016610768
92	0x3e03fd11	0.12889506
93	0x3de65ffd	0.11248777
94	0x3e0d3c50	0.13792539
95	0xbd07bf34	-0.03314133
96	0x3a8cfc38	0.0010756319
97	0xbe1065b5	-0.14101298
98	0x3d0c38fd	0.034234036
99	0xbdbb9c78	-0.091607034
100	0xbc735bc4	-0.014853422
101	0x3d3e89b2	0.046518035
102	0x3d1940e8	0.037415415
103	0x3da2010c	0.07910356
104	0x3d65ee6d	0.056135584
105	0x3d7d3ae3	0.061823737
106	0x3e0ba923	0.1363874
107	0x3dbe835f	0.09302401
108	0x3d2855b6	0.041097365
109	0x3dcc208e	0.09967147
110	0xbbd34ba9	-0.0064482284
111	0xbc17be1b	-0.009261633
112	0xbd4fc730	-0.05072707
113	0x3c6b4cea	0.014361599
114	0x3d8fa2e1	0.070134886
115	0xba43d5fb	-0.0007470545
116	0xbe2b75ba	-0.16744128
117	0x3cc2ebca	0.023794074
118	0x3d980086	0.07421975
119	0x3d455fcf	0.048187073
120	0xbcd19751	-0.025584849
121	0x3ca2fd35	0.01989613
122	0x3d2805a7	0.041021015
123	0xbd096628	-0.03354469
124	0xbe265dc2	-0.16246703
125	0x3d0781b5	0.033082683
126	0xbdd66571	-0.10468567
127	0xbd8af2ff	-0.06784629
128	0xbe383358	-0.17988336
129	0x3d1f6694	0.038916185
130	0x3d2345de	0.039861552
131	0x3e10a530	0.14125514
132	0xbd981655	-0.074261345
133	0xbcde1829	-0.02711113
134	0x3b80b5c8	0.00392792
135	0x3b075003	0.0020647056
136	0xbcac8e8f	-0.021064071
137	0xbc599105	-0.013279204
138	0xbd45e4c6	-0.04831388
139	0xbbac7558	-0.005263012
140	0xbb120fa5	-0.0022287157
141	0x3d8ce93c	0.068804234
142	0xbce34c3b	-0.02774631
143	0x3d168270	0.03674549
144	0xbd2f4773	-0.04279275
145	0xbea7da36	-0.3278367
146	0xbde873a7	-0.11350184
147	0x3d8fcc97	0.07021444
148	0x3d6e235b	0.058139186
149	0x3d0be67d	0.034155358
150	0x3db0e0cd	0.08636627
151	0x3c7dd669	0.015493014
152	0x3e0a1ba1	0.13487102
153	0x3dc55849	0.0963598
154	0xbeafb458	-0.3431728
155	0xbe301c6c	-0.17198342
156	0xbbbb0d9d	-0.00570841
157	0xbd07ccbf	-0.033154245
158	0xbc8589fb	-0.016301146
159	0x3e0bad62	0.13640359
160	0x3d2badd9	0.04191384
161	0x3c8d3812	0.01723865
162	0x3d604016	0.054748617
163	0xbd899f65	-0.06719855
164	0xbdc513ae	-0.09622894
165	0xbe5117f9	-0.20419301
166	0x3d0cb2c4	0.03435017
167	0xbca8b803	-0.020595556
168	0xbdb50925	-0.08839635
169	0x3cb3f7f3	0.021968817
170	0xbcb665c9	-0.022265332
171	0x3dda33b1	0.106543906
172	0xbd544094	-0.0518194
173	0x3d3c6681	0.045996193
174	0xbd5f05ee	-0.054449014
175	0xbcc06f22	-0.023490492
176	0xbd365e9d	-0.044523824
177	0x3d68eca6	0.05686631
178	0x3d1f2474	0.038853124
179	0x3dea7567	0.11448174
180	0xbd09f4a5	-0.033680577
181	0x3d88a040	0.0667119
182	0x3d91b5f2	0.071147814
183	0xbd8e9c86	-0.06963448
184	0x3c1e759b	0.009671594
185	0xbe37b1d9	-0.17938937
186	0xbc9d9886	-0.019237768
187	0xbc3e97ef	-0.0116329035
188	0x3cbd8213	0.023133313
189	0x3e21d96a	0.15805593
190	0x3db5388e	0.088486776
191	0x3daee4fc	0.08539769
192	0x3d8aa61c	0.06769964
193	0xbdbd7c85	-0.09252266
194	0x3d374543	0.044743787
195	0x3cb9d7c3	0.022685891
196	0x3bc2fc7c	0.0059505086
197	0x3e0eb676	0.13936791
198	0x3e0ab58c	0.13545817
199	0xbcaa2d9e	-0.020773705
200	0x3d81d580	0.0633955
201	0x3de4f7fc	0.11180112
202	0x3dbb8063	0.09155347
203	0x3df394bd	0.11893604
204	0xbcfb5361	-0.030679407
205	0x3d321aa0	0.043482423
206	0x3d6c907a	0.05775497
207	0x3d1e80e9	0.038697157
208	0xbd244872	-0.04010815
209	0x3da27358	0.07932156
210	0x3d2b1405	0.04176714
211	0xbd8a8efd	-0.06765554
212	0x3a88a673	0.0010425582
213	0xbce7b37a	-0.028283823
214	0x3d990913	0.07472434
215	0xbe3ded83	-0.18547635
216	0xbde25a24	-0.11052349
217	0x3b10a069	0.0022068268
218	0x3c4e1862	0.0125790555
219	0xbd97ed5c	-0.074183196
220	0xbdeb33b0	-0.11484468
221	0x3d99d47e	0.07511233
222	0xbded7e4e	-0.11596356
223	0x3d357216	0.044298254
224	0x3e0be5b5	0.13661845
225	0xbe8301fd	-0.25587454
226	0xbdb077f1	-0.08616627
227	0x3d5e9fa4	0.054351464
228	0xbd66a760	-0.056311965
229	0xbe073734	-0.13204652
230	0xbdd65b9a	-0.1046669
231	0x3d390c6c	0.045177862
232	0x3dbb3b41	0.09142161
233	0x3957d6e1	0.00020584046
234	0xbd459017	-0.048233118
235	0x3d6b2420	0.0574075
236	0x3e01a356	0.12659964
237	0x3d49ccc3	0.04926754
238	0xbe17499f	-0.14774178
239	0xbd0f3463	-0.03496207
240	0xbd71d4d3	-0.059040856
241	0x3d608c9c	0.054821596
242	0xbc80cfcd	-0.015724087
243	0xbdd46dbc	-0.10372493
244	0x3d59d995	0.053186018
245	0xbe2474ca	-0.16060176
246	0xbdb9982c	-0.090622276
247	0x3da3078b	0.07960423
248	0xbc82a7b1	-0.015949102
249	0x3d2ba9e9	0.041910086
250	0x3d5964f0	0.053074777
251	0xbe035fb7	-0.12829481
252	0x3d628b42	0.055308588
253	0xbe68a146	-0.22717771
254	0x3da127fb	0.07868954
255	0xbe0ca624	-0.13735253

net.0.bias f4 [50]
0	0x3e2e517b	0.1702327
1	0x3ea37d15	0.31931368
2	0x3d63b07a	0.055588223
3	0xbe8140a8	-0.2524464
4	0x3e41d8af	0.18930314
5	0x3e7b3e43	0.2453547
6	0x3d50c2cc	0.050967023
7	0xbd779f62	-0.060454734
8	0x3d466ac4	0.048441663
9	0x3d4fdb3e	0.050746195
10	0x3e6f9bfb	0.23399346
11	0xbda7aed8	-0.08187646
12	0x3e9c14b1	0.30484536
13	0xbd9160aa	-0.07098515
14	0xbd8587a5	-0.06520013
15	0x3e18d72a	0.14925829
16	0xbdbfc0e4	-0.09362963
17	0x3d6385d4	0.05554755
18	0x3db3b007	0.08773809
19	0x3b6b3020	0.003588684
20	0x3ef410e6	0.47669142
21	0x3e7ecc6a	0.24882665
22	0x3ec58023	0.38574323
23	0xbd8de408	-0.06928259
24	0x3d6958a3	0.056969296
25	0x3e221630	0.15828776
26	0x3e360103	0.17773823
27	0x3b676796	0.0035309545
28	0x3d3aee68	0.04563752
29	0xbde6a9a1	-0.11262823
30	0x3e96d7a0	0.29461384
31	0xbe49a004	-0.19689947
32	0xbde92351	-0.11383689
33	0xbde4d254	-0.111729294
34	0x3ea4e78b	0.32207903
35	0x3c2aaee3	0.010417673
36	0x3eac8c8b	0.33700976
37	0x3eb6195f	0.35566232
38	0xbe3c1400	-0.18367004
39	0xbdbc887e	-0.09205721
40	0xbe21543f	-0.15754794
41	0x3eca7215	0.39540163
42	0x3c5b4954	0.013384182
43	0x3ec97c4e	0.3935265
44	0xbe4900b5	-0.19629176
45	0x3d158dc6	0.03651216
46	0xbd862cc7	-0.06551509
47	0xbdaafefa	-0.08349414
48	0x3c68f96e	0.014219625
49	0xbc33702c	-0.010952037

net.2.weight f4 [50, 50]
0	0x3dadb578	0.08481878
1	0x3da07f01	0.07836724
2	0xbd5f88a2	-0.054573663
3	0x3b420cbb	0.0029609639
4	0xbe786d9e	-0.24260566
5	0x3d927a07	0.07152181
6	0xbdc3872d	-0.09547267
7	0xbdd7cfc3	-0.10537674
8	0xbe05ea4e	-0.13077661
9	0x3e0d4ab1	0.13798024
10	0xbbaf2489	-0.0053449315
11	0xbdfd511b	-0.12368985
12	0xbe5c7cf6	-0.21532044
13	0xbd3c6f5d	-0.04600464
14	0xbdadb352	-0.08481468
15	0x3bf11787	0.007357541
16	0x3bb56e6f	0.0055368464
17	0xbdd9270e	-0.10603152
18	0x3bae1bc3	0.005313368
19	0xbe002e3a	-0.12517634
20	0xbd51f848	-0.05126217
21	0xbdbe7a57	-0.09300678
22	0xbc95f064	-0.018303104
23	0xbdf5fcd5	-0.120111145
24	0xbe122065	-0.1427017
25	0x3d6649c0	0.056222677
26	0x3d76d1c7	0.060258653
27	0xbaf51e3f	-0.0018701031
28	0x3d80e5b1	0.0629381
29	0x3d918479	0.07105345
30	0xbe059bd3	-0.13047723
31	0xbe313242	-0.17304328
32	0x3e217791	0.15768267
33	0x3c166157	0.009178481
34	0xbcd05336	-0.025430303
35	0x3d7e6243	0.06210543
36	0xbe562661	-0.20913078
37	0x3d2b11f4	0.04176517
38	0xbde60368	-0.112311184
39	0xbcce8f8e	-0.025214937
40	0xbdfabcb4	-0.122430235
41	0xbcde1930	-0.02711162
42	0xbd860b5c	-0.065451354
43	0x3d1ec20a	0.03875927
44	0xbd9cb027	-0.07650786
45	0x3cb113ce	0.021615889
46	0xbd957386	-0.07297425
47	0xbdec5993	-0.115405224
48	0xbe5e37d1	-0.2170098
49	0xbd7f52b3	-0.062334727
50	0xbdcbbc1d	-0.09947989
51	0x3da609fd	0.08107374
52	0xbdae27c5	-0.08503679
53	0x3e127af0	0.1430471
54	0x3dd7ef40	0.1054368
55	0xbdd58ecc	-0.10427627
56	0xbd41790d	-0.047234584
57	0xbc938117	-0.01800589
58	0x3e05804c	0.13037223
59	0x3d270c32	0.040783115
60	0xbc57b95e	-0.013166754
61	0x3df3658b	0.11884602
62	0xbb9d50b5	-0.004800881
63	0x3c8601ca	0.016358275
64	0xbdfca381	-0.123358734
65	0xbdf00d27	-0.117212586
66	0xbdbf2cfe	-0.093347535
67	0x3d8e9387	0.06961732
68	0x3d8464db	0.06464549
69	0x3b8a3cdb	0.0042186803
70	0x3d0c9fa1	0.03433192
71	0xbcb1ac05	-0.02168847
72	0x3e2bd812	0.16781643
73	0xbd8b276e	-0.0679463
74	0xbd4e68a2	-0.050392754
75	0x3de3666a	0.11103518
76	0xbc3cdf24	-0.01152781
77	0x3d6793dc	0.056537494
78	0x3d4a1b9d	0.04934274
79	0x3ddd3465	0.10801009
80	0xbd4f4415	-0.050602037
81	0xbdb433f6	-0.08798973
82	0x3ad412ce	0.0016179921
83	0x3d6e0c8f	0.058117446
84	0x3e190de3	0.14946704
85	0x3dbb8cb2	0.09157695
86	0x3dc19630	0.09452474
87	0x3de1b1bb	0.110202275
88	0x3d5ca538	0.053868502
89	0x3df9b22f	0.12192189
90	0xbdc822a5	-0.09772233
91	0x3d9357c1	0.07194472
92	0xbcc61a85	-0.024182567
93	0x3dfdc922	0.12391879
94	0xbe1b8540	-0.1518755
95	0x3db1ea49	0.086872645
96	0xbdde10d3	-0.10843053
97	0xbd9d80d3	-0.07690587
98	0x3bdfe1f5	0.006832356
99	0xbb8504e1	-0.0040594195
100	0x3dc400d4	0.095704705
101	0x3d3f3299	0.046679113
102	0x3dc08090	0.09399521
103	0xbd7fd642	-0.06246019
104	0x3c3afe96	0.011413237
105	0x3d9f80d7	0.07788246
106	0xbdfc1ac0	-0.1230979
107	0xbded3907	-0.11583143
108	0x3d2d7cfc	0.042355523
109	0xbddba7ea	-0.107253864
110	0x3d6ac115	0.057313044
111	0xbd40f97f	-0.047112938
112	0x3da2c220	0.07947183
113	0xbdb82296	-0.08990972
114	0xbd26688d	-0.04062705
115	0xbe228526	-0.15871105
116	0x3c76f438	0.015072875
117	0xbd79972c	-0.060935184
118	0x3daa543d	0.083168484
119	0x3d7f583a	0.06234
120	0x3e15e73d	0.14638992
121	0x3e02b665	0.1276489
122	0xbd64af1c	-0.05583106
123	0x3e0ba291	0.13636233
124	0xbda5d876	-0.08097927
125	0x3d4e1eae	0.050322227
126	0xbcb40059	-0.021972822
127	0x3e04e251	0.12976958
128	0x3cf63f64	0.030059524
129	0xbe020bb6	-0.1269978
130	0xbcade81b	-0.02122884
131	0xbe3b843a	-0.18312159
132	0xbdd87916	-0.1056997
133	0xbdb4a094	-0.0881969
134	0xbe300403	-0.1718903
135	0xbe0bd65f	-0.13655995
136	0xbd9e073a	-0.07716222
137	0x3c9bb2df	0.01900619
138	0x3dd46a30	0.10371816
139	0xbdeb269e	-0.11481975
140	0xbdd8ee22	-0.10592295
141	0x3dc07c6e	0.09398733
142	0xbd90b4d0	-0.07065737
143	0xbcc932e2	-0.024560396
144	0xbdc97fdb	-0.098388396
145	0x3dafe5e7	0.08588772
146	0xbd9e9ac0	-0.0774436
147	0xbd0ae8c6	-0.033913396
148	0x3dec6ba7	0.115439706
149	0xbdbd4339	-0.09241337
150	0x3d5c718b	0.05381922
151	0x3c8d0fe1	0.017219486
152	0x3d63e41a	0.055637456
153	0x3df96b9f	0.1217873
154	0x3e0257ab	0.12728755
155	0x3e0d993f	0.1382799
156	0x3c098cac	0.008395355
157	0x3dfb1ca3	0.122613214
158	0x3dcc4c37	0.09975474
159	0x3cdb3abd	0.026761407
160	0xbd4c12da	-0.049822666
161	0x3ddd1ba0	0.10796285
162	0x3e10c6ca	0.14138332
163	0xbd0acc8f	-0.03388649
164	0x3da422e3	0.080144666
165	0x3e07b475	0.13252433
166	0xbcc22137	-0.023697479
167	0xbe01c84e	-0.12674066
168	0x3e1101a5	0.14160784
169	0xbd013594	-0.031545237
170	0x3e81501f	0.2525644
171	0xbd868a3f	-0.06569337
172	0x3dab61c2	0.08368255
173	0x3cbab63b	0.022791972
174	0x3de97d72	0.1140088
175	0x3e27c560	0.16383886
176	0xbc3ebbc0	-0.011641443
177	0x3e0fa3b2	0.14027289
178	0xbde04a3e	-0.109516606
179	0xbde8fa61	-0.11375881
180	0xbdac856a	-0.08423884
181	0xbd967b3b	-0.07347723
182	0xbdfc35ce	-0.1231495
183	0xbd2af65f	-0.041738864
184	0x3e227c22	0.15867665
185	0xbd8e1e15	-0.069393314
186	0x3e4e9842	0.20175269
187	0x3de32ef8	0.11092943
188	0xbda853db	-0.08219119
189	0x3db7640a	0.08954628
190	0xbc0fba6d	-0.008772475
191	0x3e700666	0.23439941
192	0xbcd9aa83	-0.026570564
193	0xbc268667	-0.01016388
194	0xbde862b4	-0.11346951
195	0xbd65310e	-0.055954985
196	0xbbc92dcd	-0.006139493
197	0xbc7cc25f	-0.015427201
198	0xbdf9b124	-0.1219199
199	0xbd4018f4	-0.046898797
200	0x3acbe83d	0.0015556883
201	0x3c89e2af	0.016831724
202	0x3da2e5f9	0.0795402
203	0xbd53c552	-0.05170185
204	0x3e0295f7	0.1275252
205	0x3df7affc	0.12094113
206	0x3d9d22c4	0.07672647
207	0xbe01cd58	-0.12675989
208	0xbce3df8b	-0.027816555
209	0x3dc138fd	0.09434698
210	0x3e156bf8	0.14591968
211	0x3c5916a2	0.013250025
212	0x3e469104	0.19391257
213	0xbd8206c8	-0.0634895
214	0x3dbaa595	0.091136135
215	0x3e0aecec	0.13566941
216	0xbcae6e09	-0.021292703
217	0xbd05a299	-0.03262577
218	0x3da01905	0.07817272
219	0xbd8beb58	-0.06831998
220	0x3e41a7a2	0.18911603
221	0x3beca678	0.007221993
222	0xbca9e865	-0.020740697
223	0x3df7d03c	0.121002644
224	0xbd5913ba	-0.05299733
225	0x3da572fd	0.08078573
226	0x3d34e606	0.04416468
227	0xbce02f20	-0.027366221
228	0x3d827e9e	0.063718066
229	0xbd377339	-0.04478762
230	0x3d4decf4	0.050274804
231	0xbe4127e3	-0.18862872
232	0x3d65a55b	0.0560659
233	0xbdbc3d6d	-0.091914035
234	0xbbd5e63b	-0.0065276898
235	0x3da12bb3	0.07869663
236	0x3db0094c	0.08595523
237	0x3d0e80fd	0.03479098
238	0xbdda6965	-0.10664634
239	0x3d8bbfd6	0.06823699
240	0x3db32f7c	0.08749291
241	0x3e62bd7a	0.22142592
242	0xbd2ac11b	-0.041688066
243	0x3d0b8d9f	0.034070607
244	0xbd91d635	-0.07120935
245	0x3da271b9	0.07931847
246	0xbe256ae3	-0.16154055
247	0xbd569f1f	-0.052397843
248	0x3e030ee2	0.12798646
249	0x3e099ca3	0.13438658
250	0x3e2aa2f9	0.16663732
251	0x3d7af199	0.06126556
252	0xbd510809	-0.051033054
253	0xbc2039d2	-0.00977941
254	0x3dcebc73	0.100945376
255	0xbc188d69	-0.009311059

net.2.bias f4 [50]
0	0xbe0e75f6	-0.13912186
1	0x3e6f1507	0.23347865
2	0x3e97894b	0.29596934
3	0x3edb1f47	0.427973
4	0x3eef13ef	0.46694896
5	0x3ed9fef0	0.42577314
6	0x3dd517e7	0.1040495
7	0x3e9ecb7d	0.31014624
8	0x3e28f47c	0.16499513
9	0xbc54dbeb	-0.012991886
10	0x3ec8279b	0.39092717
11	0xbe1d418d	-0.15357037
12	0xbe02ddf0	-0.12779975
13	0xbe13a133	-0.14416961
14	0xbdbde8b8	-0.09272903
15	0xbd25b788	-0.040458232
16	0x3eee44d6	0.46536893
17	0x3d3b521e	0.04573261
18	0x3ce57eab	0.028014502
19	0x3ef9b4ed	0.48770848
20	0xbe22cc4b	-0.15898244
21	0x3b2e1ccb	0.0026567455
22	0x3efe0836	0.4961564
23	0xbe17e017	-0.14831577
24	0x3ed58a11	0.417069
25	0xbe382b67	-0.17985307
26	0x3edec286	0.43507785
27	0x3e9c9c3b	0.30587944
28	0x3ef798d5	0.4835879
29	0xbce08574	-0.027407385
30	0x3c875f44	0.016524918
31	0xbba521fe	-0.0050394526
32	0x3e0cd277	0.13752161
33	0xbe077e4a	-0.13231769
34	0xbe19028e	-0.14942381
35	0x3efe392a	0.49652988
36	0x3ecc8291	0.39943364
37	0x3e628a4f	0.22123073
38	0x3ed20e42	0.41026503
39	0x3f0448c5	0.5167354
40	0x3ef786e9	0.48345116
41	0xbe258cff	-0.16167067
42	0x3ed622da	0.41823465
43	0xbd8b81fb	-0.06811901
44	0x3efa0e84	0.488392
45	0x3ed468bf	0.41486165
46	0x3e1f3113	0.15546064
47	0xbe49bd38	-0.19701087
48	0x3e822107	0.25415823
49	0x3f0274e7	0.5095963

net.4.weight f4 [50, 50]
0	0xbd13fbb2	-0.036128707
1	0xbda341ef	-0.0797156
2	0x3d86013e	0.06543206
3	0x3d3acb70	0.04560417
4	0x3dc3eff4	0.09567252
5	0xbd2b4320	-0.041812062
6	0xbdbe1732	-0.09281768
7	0x3d17b099	0.03703365
8	0xbdb04d90	-0.08608544
9	0xbdfe4206	-0.12414937
10	0x3da84599	0.082164
11	0x3de58401	0.11206818
12	0x3e034e97	0.12822948
13	0x3de09e29	0.10967667
14	0x3d88eb6d	0.06685529
15	0x3c3860cb	0.011253546
16	0xbddf0b19	-0.108907886
17	0xbd9d6157	-0.07684582
18	0x3de14d2e	0.11001049
19	0x3e051205	0.12995155
20	0x3d9287af	0.07154786
21	0x3d4a0f91	0.04933125
22	0x3e077aeb	0.13230483
23	0x3d8cc228	0.0687297
24	0xbdda752e	-0.106668815
25	0xbdeec79a	-0.11659165
26	0x3db3e970	0.08784759
27	0x3d8451d9	0.06460924
28	0xbd8335a9	-0.06406719
29	0xbe014389	-0.12623419
30	0xbe847d89	-0.25877026
31	0xbd11075f	-0.03540742
32	0xbd682891	-0.056679312
33	0x3d87756d	0.06614194
34	0xbcd8edb0	-0.026480526
35	0x3d9a3596	0.07529752
36	0x3c9790b4	0.018501617
37	0xbdc8ee5a	-0.09811087
38	0x3db11adb	0.086477004
39	0x3d7d86df	0.0618962
40	0xbd8c8407	-0.0686112
41	0x3d9dd301	0.077062614
42	0x3d31c27e	0.043398373
43	0x3dfa8799	0.122328945
44	0x3c7d38bc	0.015455421
45	0xbda1f0fd	-0.07907293
46	0xbbafaff5	-0.005361552
47	0xbd8d58b9	-0.06901688
48	0xbd842b96	-0.06453626
49	0x3e10962e	0.14119789
50	0x3dd8c8ef	0.105852
51	0x3db8655c	0.09003708
52	0x3d23db5d	0.040004123
53	0xbd38d51c	-0.045125112
54	0x3d0b7fe9	0.03405753
55	0xba932bdb	-0.001122828
56	0xbe1bbc37	-0.15208517
57	0xbe194c58	-0.14970529
58	0xbd5c2280	-0.05374384
59	0xbdde8af5	-0.10866348
60	0xbe01703b	-0.12640469
61	0x3de6ab9d	0.112632014
62	0x3de2114b	0.110384546
63	0x3cef1fcd	0.029189968
64	0xbd3f35e6	-0.04668226
65	0x3ae183c1	0.0017205403
66	0xbd9f3f33	-0.07775726
67	0xbcad2f5c	-0.021140747
68	0xbdd5c0c8	-0.10437161
69	0x3d870faf	0.06594788
70	0xbe14a3a1	-0.14515544
71	0xbe136180	-0.14392662
72	0xbe02e279	-0.12781705
73	0x3dcb1bab	0.099173866
74	0xbdbdee1f	-0.092739336
75	0x3d5d9e60	0.054106116
76	0xbdb42e02	-0.08797838
77	0xbe315e81	-0.17321207
78	0xbd85bade	-0.06529783
79	0xbe0e74cf	-0.13911746
80	0x3cb3cb33	0.021947479
81	0x3de58823	0.11207607
82	0xbdd929b4	-0.10603657
83	0xbd145215	-0.036211092
84	0x3d54db7b	0.051967125
85	0x3d64a354	0.055819824
86	0x3d0b8a6a	0.03406755
87	0xbe308ed6	-0.17241988
88	0xbe1a14ba	-0.15046969
89	0x3dd293d8	0.10282105
90	0xbd976404	-0.07392123
91	0xbdfa7881	-0.122300155
92	0x3a6d6d08	0.00090570794
93	0x3de1dbe1	0.11028267
94	0xbbd83413	-0.0065980046
95	0xbdf835cf	-0.12119638
96	0x3d0b58ba	0.034020163
97	0xbe0cac8a	-0.13737693
98	0x3dcb7b43	0.0993562
99	0xbe0247ba	-0.12722674
100	0xbdb8b3e7	-0.09018689
101	0xbd92e15c	-0.0717189
102	0xbe2a8c4b	-0.1665508
103	0xbd5886f3	-0.052863073
104	0xbe0786d1	-0.13235022
105	0xbdeed39d	-0.11661456
106	0xbb6fc3af	-0.0036585142
107	0xbdd16d8a	-0.10225971
108	0xbba70333	-0.005096817
109	0x3d5a2869	0.053261194
110	0xbe2ae6c3	-0.16689591
111	0xbc796b9c	-0.01522341
112	0x3d64a64b	0.05582265
113	0x3d248678	0.040167302
114	0x3cb62802	0.022235874
115	0xbacb14d3	-0.0015493877
116	0xbb000d30	-0.001953911
117	0x3da153ab	0.078772865
118	0xbc3e1a41	-0.011602939
119	0x3d05b6c0	0.032644987
120	0x3e1b3cee	0.15159962
121	0x3cac603f	0.021041987
122	0xbe0822f5	-0.13294585
123	0x3b394429	0.0028269386
124	0x3d14ef41	0.036360983
125	0x3bf37ccd	0.007430649
126	0x3d8efe6b	0.0698212
127	0xbe10265c	-0.14077133
128	0x3dc0ef12	0.09420599
129	0xbdde09df	-0.108417265
130	0xbc6bbe3f	-0.01438862
131	0xbdbe9f37	-0.093077116
132	0x3d9108b1	0.07081736
133	0x3bc6aeea	0.006063332
134	0x3cb0580b	0.021526357
135	0x3d5e7ce1	0.054318313
136	0x3d37ca4f	0.04487067
137	0xbe01ec65	-0.12687834
138	0x3d551969	0.052026186
139	0x3ccb97d5	0.024852673
140	0x3c15a458	0.009133421
141	0x3dea9611	0.11454404
142	0xbe07d638	-0.13265312
143	0xbd86b467	-0.06577378
144	0xb9e7f2f5	-0.0004424077
145	0x3ad1bc6b	0.0016001588
146	0xbdd05610	-0.10172665
147	0xba6e01fe	-0.00090792764
148	0xbd62327e	-0.055223934
149	0x3dcaca14	0.099018246
150	0x3d84dd39	0.064875074
151	0xbd8a5f1f	-0.06756424
152	0x3d9d3f26	0.0767806
153	0x3dfee1a6	0.12445383
154	0x3e1aa0bf	0.15100382
155	0xbb280c01	-0.002564192
156	0x3a2cb3ee	0.0006588091
157	0x3e0dbcae	0.13841507
158	0x3d9d7e73	0.07690134
159	0xbce31b76	-0.027723055
160	0x3e02760a	0.12740341
161	0x3d970522	0.07374026
162	0x3e0934a8	0.13398993
163	0xbd9a5ab9	-0.07536835
164	0xbe0fe2f4	-0.1405142
165	0xbdcffddf	-0.10155844
166	0xbdf892d4	-0.1213738
167	0x3d6bf835	0.057609756
168	0x3e2be8fc	0.16788095
169	0x3d7674ee	0.060170107
170	0x3d0efc9f	0.034908887
171	0x3d3211dd	0.043474067
172	0xbd4dc05f	-0.050232287
173	0xbdf3a769	-0.11897165
174	0x3dce7fd4	0.10082975
175	0x3d722538	0.059117526
176	0xbc6db142	-0.014507594
177	0xbdba5c3b	-0.09099623
178	0xbd6da8c6	-0.058022283
179	0x3e365660	0.17806387
180	0xbe2431c5	-0.1603461
181	0xbc130019	-0.008972191
182	0xbdea2d79	-0.114344545
183	0x3d05180b	0.032493632
184	0xbcb48120	-0.022034228
185	0x3e49a340	0.19691181
186	0x3d89ed01	0.06734658
187	0x3b5d7979	0.0033794327
188	0xbd354797	-0.044257727
189	0xbca919fc	-0.020642273
190	0x3e1b9e17	0.15197025
191	0x3dda04ce	0.10645448
192	0x3de86b50	0.11348593
193	0xbd0bcbb2	-0.034129806
194	0x3de7dc2a	0.1132129
195	0xbdda6c3d	-0.10665176
196	0x3d8a2f1a	0.06747265
197	0xbd7f6ff3	-0.062362622
198	0xbe1376e9	-0.1440083
199	0xbd470533	-0.048588943
200	0xbd688c87	-0.056774642
201	0x3cb5e7fc	0.022205345
202	0xbd31bbc6	-0.043391965
203	0xbdb62d7f	-0.088953964
204	0x3dacfc04	0.08446506
205	0x3de7e458	0.1132285
206	0x3db4ff41	0.08837748
207	0xbe20f01f	-0.15716599
208	0x3de8c6fe	0.1136608
209	0xbdf05e43	-0.11736729
210	0xbe0048fb	-0.1252784
211	0xbe1efcf6	-0.15526184
212	0xbac43309	-0.0014968823
213	0x3d17f1b6	0.037095748
214	0xbdf5026b	-0.11963352
215	0xbdb8647d	-0.090035416
216	0xbe0547a0	-0.13015604
217	0xbdce8194	-0.10083309
218	0xbe0b2ed0	-0.13592076
219	0xbd3d6a49	-0.04624394
220	0x3dbb9df8	0.091609895
221	0xbbecf83f	-0.0072317417
222	0xbdeedab8	-0.11662811
223	0xbdc5177b	-0.09623619
224	0xbc9d5f4f	-0.019210486
225	0xbdaa9fa4	-0.0833123
226	0xbcfdf198	-0.03099899
227	0xbda075a9	-0.07834942
228	0xbd8d5bdb	-0.06902286
229	0x3dca828f	0.09888183
230	0x3b8abd20	0.0042339712
231	0xbd874271	-0.066044696
232	0x3d17894a	0.036996163
233	0xbd9d04cb	-0.0766693
234	0xbdccf297	-0.10007208
235	0x3d4b01ea	0.049562372
236	0x3db1aee2	0.086759344
237	0x3db721a0	0.0894196
238	0xbdd07983	-0.101794265
239	0xbd57f4be	-0.05272364
240	0xbdc7cc95	-0.09755818
241	0xbd9a051d	-0.075205065
242	0x3dbecdb3	0.09316578
243	0xbced34ff	-0.028955935
244	0x3c46e715	0.012140055
245	0xbe1c7187	-0.15277682
246	0xbde89c7a	-0.113579705
247	0x3df1bced	0.11803613
248	0xbdb9cd16	-0.0907232
249	0x3d83abf2	0.0642928
250	0xbd9b76a0	-0.07590985
251	0x3cd1b1e5	0.025597522
252	0x3dc2e922	0.09517123
253	0x3e86f219	0.2635658
254	0x3e2d1d90	0.16905808
255	0x3e202b5c	0.1564154

net.4.bias f4 [50]
0	0x3eac53e2	0.33657748
1	0x3dd05860	0.10173106
2	0xbda9f3fc	-0.082984895
3	0x3e8eb950	0.27875757
4	0x3dcba927	0.099443726
5	0x3f0b0492	0.5430385
6	0xbdf9e4ba	-0.12201829
7	0x3ed06b9e	0.40707105
8	0xbe040b23	-0.12894873
9	0xbdab879b	-0.08375474
10	0x3db404d1	0.08789981
11	0x3e89752d	0.2684721
12	0x3e8ca44a	0.27469093
13	0xbd1f83d7	-0.03894409
14	0x3e96d9ff	0.29463193
15	0xbc68eebd	-0.014217076
16	0xbd73e3bf	-0.059543367
17	0xbe095c9c	-0.13414234
18	0x3ee290a0	0.44250965
19	0x3e6492c7	0.22321616
20	0x3ec6538e	0.38735622
21	0xbd162f73	-0.036666345
22	0xbcca2a6d	-0.024678433
23	0x3ecb7bca	0.3974288
24	0x3c89f25f	0.016839204
25	0x3da54df2	0.080715075
26	0x3cb67105	0.022270689
27	0x3df7007e	0.12060641
28	0x3e95109f	0.29114243
29	0xbe24236d	-0.16029139
30	0xbd831204	-0.063999206
31	0x3d0b39f8	0.03399083
32	0x3d723e4b	0.05914144
33	0xbde009ca	-0.10939367
34	0xbdcebd88	-0.10094744
35	0xbca4ea63	-0.020131296
36	0x3deadeb6	0.1146826
37	0x3ee1113d	0.43958464
38	0x3ca8e462	0.020616714
39	0x3f00fd5a	0.50386584
40	0x3ebb6266	0.3659851
41	0x3ee9cb72	0.4566303
42	0xbd83f0b8	-0.06442398
43	0xbd05b535	-0.032643516
44	0x3dccf62e	0.100078925
45	0xbd4ec4f7	-0.05048081
46	0x3e1a54db	0.15071432
47	0xbd2ad9af	-0.041711506
48	0x3a4cdc49	0.00078148075
49	0x3cbc6fc7	0.023002518

net.6.weight f4 [3, 50]
0	0xbde2c433	-0.11072578
1	0x3ccf1c00	0.025281906
2	0xbd7b94e1	-0.06142128
3	0xbdfc514d	-0.123201944
4	0xbc60c777	-0.013719431
5	0xbe4bd064	-0.19903713
6	0x3e03e9f7	0.1288222
7	0xbe179b4f	-0.1480534
8	0x3e073ad1	0.1320603
9	0xbd2a5cd8	-0.04159245
10	0x3c81824c	0.0158092
11	0xbe44f4bf	-0.19233988
12	0xbdc99038	-0.09841961
13	0x3d063bb5	0.032771785
14	0xbe312767	-0.17300187
15	0xbd97a20e	-0.07403956
16	0x3b78e790	0.003797982
17	0xbdb45a44	-0.08806279
18	0xbe677158	-0.22601831
19	0xbe355574	-0.17708379
20	0xbe352992	-0.17691639
21	0xbccc7403	-0.024957662
22	0xbd7bb300	-0.061450005
23	0xbe13b876	-0.14425835
24	0x3dd462f3	0.103704356
25	0xbc223b6f	-0.009901865
26	0x3d9bd90b	0.07609757
27	0xbd9ea9d2	-0.077472344
28	0xbe413497	-0.18867718
29	0x3d98f731	0.07469023
30	0x3d2f2f34	0.042769626
31	0xbdb7ec63	-0.08980634
32	0xbd8359e4	-0.0641363
33	0x3d086694	0.03330095
34	0xbd66b52a	-0.056325115
35	0x3c0cd97b	0.008596773
36	0x3dd42493	0.103585385
37	0xbe53bde0	-0.206779
38	0xbcf7ae61	-0.030234518
39	0xbe32c6bb	-0.17458622
40	0xbe221187	-0.15826999
41	0xbe215fb3	-0.15759163
42	0x3da15d36	0.07879107
43	0x3d2ac7b9	0.041694377
44	0x3d658ed3	0.05604441
45	0x3d0dd95c	0.03463112
46	0xbe06a390	-0.13148332
47	0x3dadc113	0.084840916
48	0x3d843d26	0.06456976
49	0xbd8b6695	-0.06806675
50	0xbe2d6377	-0.16932474
51	0xbd6d1756	-0.057883583
52	0xbcaf7677	-0.021418793
53	0xbd9ae45e	-0.07563089
54	0x3c68a87b	0.014200325
55	0xbe75063d	-0.23928161
56	0xbd07aef8	-0.033125848
57	0xbe1d8b19	-0.15385093
58	0x3cc13720	0.023585856
59	0xbd591e24	-0.05300726
60	0x3d98e0d2	0.07464756
61	0xbe2c2914	-0.16812545
62	0xbdcf7382	-0.10129453
63	0xbd6f8330	-0.05847472
64	0xbe382d60	-0.17986059
65	0x3da8d4e1	0.082437284
66	0x3d26ad0b	0.04069237
67	0x3a4aac00	0.00077313185
68	0xbe4e6952	-0.20157364
69	0xbe33d0a4	-0.17560059
70	0xbe347f14	-0.17626601
71	0x3c4944aa	0.012284437
72	0xbba8ce68	-0.0051515587
73	0xbe232160	-0.159307
74	0x3d648f9d	0.055801023
75	0x3d861ea9	0.06548817
76	0x3d65c162	0.056092627
77	0xbdb08aff	-0.086202614
78	0xbddf1066	-0.108918
79	0xbce6e43b	-0.028185
80	0x3ceaa260	0.02864188
81	0xbdfe4b16	-0.12416665
82	0x3d6fb5b4	0.058522895
83	0x3dfa674e	0.12226735
84	0x3e088825	0.13333185
85	0x3dfb42f3	0.12268629
86	0xbc8bc344	-0.017060883
87	0xbe32da66	-0.17466125
88	0x3dbda4fd	0.09259985
89	0xbe5f385a	-0.2179884
90	0xbe1c7fd9	-0.15283145
91	0xbe661ebd	-0.22472663
92	0xbe02756b	-0.12740104
93	0x3c3a7f60	0.011382908
94	0x3ddd6186	0.10809617
95	0xbc5319ef	-0.012884601
96	0xbd80e94e	-0.06294499
97	0x3d27514c	0.040849015
98	0x3d4658c5	0.0484245
99	0x3d5a2e05	0.053266544
100	0xbe18730e	-0.1488764
101	0xbd8f2f45	-0.06991438
102	0xbd4951a7	-0.049150135
103	0xbe2dea39	-0.1698388
104	0x3d68971d	0.056784738
105	0xbe56e843	-0.20987038
106	0x3ceedfef	0.029159514
107	0xbe46c0aa	-0.19409433
108	0x3d37d0a0	0.044876695
109	0xbe1c28e0	-0.15249968
110	0x3dc9c5b2	0.098521605
111	0xbe2506af	-0.16115831
112	0xbdc6889f	-0.09694027
113	0x3df41b08	0.11919218
114	0xbd97411a	-0.07385464
115	0x3d0ec98f	0.03486019
116	0xbd7fd1e8	-0.06245604
117	0xbbee86e0	-0.007279262
118	0xbe2b55bd	-0.16731925
119	0xbdf505a4	-0.119639665
120	0xbe495f98	-0.19665372
121	0xbc891ce1	-0.016737403
122	0x3dfa4e7f	0.12222003
123	0xbe3867cc	-0.18008345
124	0x3d50effc	0.051010117
125	0x3dd2ae32	0.10287131
126	0x3daee0fb	0.08539005
127	0xbdd26a7b	-0.10274216
128	0xbe3425d3	-0.17592554
129	0xbba13f23	-0.0049208566
130	0x3d4c1f07	0.049834277
131	0xbdb79e7b	-0.089657746
132	0xbd8ed80a	-0.069748
133	0xbe03f295	-0.12885506
134	0x3c34a900	0.011026621
135	0x3c2f82c7	0.010712332
136	0x3dd424df	0.10358595
137	0xbe28986d	-0.16464396
138	0x3da6d2b0	0.08145654
139	0xbe594063	-0.21215968
140	0xbe08b089	-0.13348593
141	0xbea5687c	-0.32306278
142	0xbc2e875f	-0.010652392
143	0x3dbb6d48	0.09151703
144	0x3d97b8a1	0.07408262
145	0xbb8ff12b	-0.004392763
146	0xbdbc3ece	-0.091916665
147	0x3ddd1ce8	0.10796529
148	0xbd4ff2a0	-0.050768495
149	0x3d91590c	0.070970625

net.6.bias f4 [3]
0	0xbe8a3fe0	-0.27001858
1	0xbe2e1fe5	-0.17004354
2	0xbe38d189	-0.18048681
