model_bad_old.pth (torch, 107715 bytes, 4 tensors)

linear1.weight f4 [255, 100]
000000 f8 b0 fb bc 37 d4 da 3c 0a f1 9c 3d 5c 70 a5 bc
       -0.030724034 0.02671252 0.07663162 -0.020195179
000010 5c 4d 47 3d 7d f4 be 3d 5e b2 cd bd b7 3c 29 bc
       0.04865776 0.09323976 -0.100437865 -0.010329417
000020 32 92 bb bd 09 57 44 bd 66 2a 54 3e 07 b2 c3 bd
       -0.09158744 -0.047934566 0.20719299 -0.095554404
000030 e1 6e 92 3c e1 ff 69 3d ac eb a2 3d f4 e2 58 bd
       0.017875137 0.05712879 0.07955107 -0.052950814
000040 70 de a0 3d f7 3e 9d 3d 0d 8b b8 3d 24 0d f3 ba
       0.078549266 0.07678025 0.09010897 -0.0018543345
000050 eb 35 2e bd d6 0b 0d bd bd da 6a 3d 3d 00 de 3d
       -0.04253189 -0.034435116 0.05733751 0.10839889
000060 18 bf 2c bd 78 4a 5e 3d 41 59 b6 3d 78 1b 47 3d
       -0.04217443 0.054270238 0.089037426 0.04861018
000070 79 8a 94 bd e1 d7 47 bd de a9 f6 3d bb 37 2d 3d
       -0.07252974 -0.048789863 0.12044118 0.042289477
000080 2e a0 9d 3d b1 8e 9f bb c0 61 a2 3c 63 00 c9 3c
       0.076965675 -0.004869305 0.019822001 0.024536317
000090 8b 75 2a bd 7f 59 ca 3d 86 49 7d bc f7 1d 20 bd
       -0.041616004 0.09880351 -0.015459424 -0.039091077
0000a0 8e 4c 7f 3d b6 5b b9 bd a2 74 03 3d 9c 48 d5 bd
       0.062328868 -0.090506956 0.03209365 -0.1041424
0000b0 40 b1 91 bd ff cd 60 bc 9b f2 8d 3d f6 5b 34 3d
       -0.07113886 -0.013720988 0.06931039 0.044033013
0000c0 0d d4 a1 bd 28 01 d0 3d cd 5b 8e bd c1 e3 d7 3c
       -0.079017736 0.101564705 -0.06951103 0.026353719
0000d0 da 03 d6 bd c1 e4 09 3c d1 7a f1 3a 48 b7 b9 bd
       -0.104499534 0.008416356 0.0018423443 -0.09068161
0000e0 fc 72 25 3d 26 7a 20 3d 20 3c 25 bd 70 d4 2b bd
       0.04039286 0.03917899 -0.040340543 -0.041950643
0000f0 c9 fb 6f bd 4d eb b2 bd a3 b9 30 3d 29 8d 82 3d
       -0.05858973 -0.08736286 0.043145787 0.063745804
000100 45 77 12 be 74 49 41 3c 91 65 7a 3d b9 22 bd bd
       -0.1430331 0.011797298 0.061132018 -0.092351384
000110 1c 45 a2 bd 1f c9 8a 3d b7 9c 11 bd e0 28 64 3d
       -0.07923338 0.06776642 -0.035549846 0.055703044
000120 e5 9f 82 bc 22 ea 4c 3d d7 59 bb 3d 1f 75 8a bd
       -0.015945384 0.050027974 0.09147995 -0.0676062
000130 f4 1d a8 bc 39 4d 59 bd a3 56 23 bd 8c 6a c0 3d
       -0.020522095 -0.05305216 -0.039877545 0.09395322
000140 80 61 aa 3d 5c 29 f9 3d 55 a4 e2 bc f7 36 f0 3d
       0.08319378 0.12166092 -0.02766625 0.11729234
000150 a8 7f 07 bd 17 13 d4 bd 7f a6 8b 3d f3 0f 86 3d
       -0.033080727 -0.103552036 0.06818866 0.06546011
000160 d9 96 22 bd cc 9a 86 3c 46 d5 a2 bd 44 fe 59 bd
       -0.03969464 0.016431235 -0.07950835 -0.053221002
000170 61 d6 f5 3d a2 bd 02 3c 02 2d 11 3d c7 a0 95 3d
       0.1200378 0.007979782 0.035443313 0.073060565
000180 60 83 61 bd 94 f0 b1 3d 5b d3 37 bb 36 f1 f9 3c
       -0.05505693 0.08688465 -0.0028049562 0.030510526
000190 30 5d 56 bc 85 55 08 bd 01 2d e9 3d 9a e6 df 3d
       -0.013083741 -0.033284683 0.11385537 0.10932656
0001a0 41 82 76 3c a1 a6 6e bd 5c 42 d9 bd b8 51 c1 bc
       0.015045703 -0.05826438 -0.1060836 -0.023598537
0001b0 01 38 aa 3d a7 f3 58 3d a9 f2 f1 3d 28 17 04 3e
       0.08311463 0.05296674 0.11813862 0.12899458
0001c0 6f 58 54 3b ca fc ab 3b 8d 09 97 bc 29 f9 42 bd
       0.0032401343 0.0052486407 -0.018437171 -0.0476009
0001d0 8e 0f d4 bd 36 b6 62 bd fc dd 7d 3d 4d 88 6b ba
       -0.10354529 -0.05534955 0.06197928 -0.0008984849
0001e0 85 0c 44 3d ac e2 d6 3d 6e a6 59 bd 4b 64 c0 3d
       0.047863502 0.10492453 -0.053137235 0.09394129
0001f0 17 ba 20 be a5 14 68 3d 5b cf 81 3d e5 02 3b bd
       -0.15695988 0.056660313 0.06338378 -0.045657057
000200 d0 c6 08 bd 25 15 9d 3d 81 fc 04 3e 3d a6 49 3c
       -0.033392727 0.076700486 0.12986948 0.012307701
000210 94 e8 c0 bc 6f f9 ac 3d b9 4c c5 bd f9 52 5f 3d
       -0.023548402 0.08446013 -0.09633774 0.05452249
000220 77 e1 70 3b 4c 82 39 3c 94 6e 5b 3d 83 b7 cc bd
       0.0036755481 0.011322569 0.053572252 -0.099959396
000230 45 21 51 3c 36 bd 47 bc 67 44 a7 3c 77 21 88 3d
       0.01276428 -0.0121911075 0.020418359 0.06647008
000240 4a 44 ec 3c 5a 5c af bd 42 76 e6 3d a6 75 9a bd
       0.028841157 -0.085625365 0.11253025 -0.07541971
000250 b5 67 8f 3d fc 71 a6 3b 40 34 c6 bd 6e 01 4f bd
       0.070022024 0.005079506 -0.09677935 -0.050538473
000260 2f bf d2 bc 7f 15 91 bd 6e 1f a2 bd 17 35 86 3d
       -0.025725929 -0.07084178 -0.07916151 0.06553095
000270 87 92 28 3b da dc 84 bd 43 24 8b 3d 3f 35 17 3c
       0.0025722103 -0.064874366 0.06794026 0.009229003
000280 3d 07 98 bd 07 b0 94 3d a4 93 a3 3c ca cd 2a bd
       -0.074232556 0.07260137 0.019967861 -0.041700162
000290 04 5f 49 bc 6e 4f 3a 3d 7c b5 26 bd 78 d0 bd bd
       -0.01229072 0.045485906 -0.04070042 -0.09268278
0002a0 88 52 34 bb bc e8 73 3d 05 da 01 bc 59 57 df bc
       -0.0027515013 0.059548125 -0.007925515 -0.02726333
0002b0 56 f2 40 bd 75 8f de bc 96 03 9a bd ce a0 2a 3d
       -0.04710611 -0.027168015 -0.07520215 0.04165726
0002c0 b3 21 83 bd 8d 95 f5 bd 40 84 85 bd 75 29 7c 3d
       -0.06402912 -0.11991415 -0.06519365 0.061562974
0002d0 3f de ab 3c 8f ed 49 3d 78 6e ba bc 23 56 e5 3c
       0.020979999 0.04929882 -0.022757754 0.027995175
0002e0 fc dc c6 3c 56 59 9e 3d 1c 36 a9 bc 4a b7 c9 bc
       0.024275295 0.07731883 -0.020655684 -0.024623532
0002f0 c2 66 0a bd cd 2a f3 bd b0 40 83 3b cb 48 a5 bd
       -0.033789404 -0.11873398 0.004005514 -0.08070525
000300 b0 82 07 bd e7 c4 1e 3d 5b d9 24 bc df 96 3e bd
       -0.033083618 0.038762 -0.010061587 -0.0465306
000310 4b 77 af 3a 93 3a 59 3d 8d 93 af 3d f4 5c 44 3d
       0.0013386993 0.053034376 0.08573065 0.04794021
000320 3e 28 40 3d 0a 24 9e 3d e6 6f 15 3e 12 53 73 3c
       0.046913378 0.07721718 0.14593467 0.0148513485
000330 ea 80 89 bd 8c 2f a6 3d c1 47 e3 3d 4e 33 3b 3d
       -0.067140415 0.081145376 0.1109767 0.045703225
000340 f4 b6 8f bd b3 60 bb 3d a4 5a 3d 3d 8e bb 03 3d
       -0.070173174 0.09149303 0.04622902 0.032161288
000350 94 59 51 3d 5b 25 10 3e c1 19 2b bb e0 0a 20 bc
       0.05111082 0.1407675 -0.002610788 -0.009768218
000360 eb 59 c6 3c eb 55 b8 3d 14 dc 08 3e 09 5f e7 ba
       0.024212798 0.090007626 0.13365203 -0.0017652224
000370 35 e8 f6 3d fa 77 15 3d 0e 05 d8 bc 4d 1e bf bd
       0.12056009 0.03649137 -0.026369598 -0.09331951
000380 3b 4d 8e 3d f0 f1 a3 3d 4b 81 a9 bd 4c a5 c0 bc
       0.06948324 0.0800513 -0.08276614 -0.02351632
000390 36 81 c8 3d 6c ec 1a bd 99 35 0a 3e 15 3f 1f 3d
       0.0979027 -0.037823126 0.13497008 0.03887852
0003a0 0f 77 79 bd aa f7 37 bd 02 39 e7 bd 26 1c 90 bc
       -0.06090456 -0.044913925 -0.1129017 -0.017591547
0003b0 aa fa 2d bc e0 8e a7 bd 71 73 3d 3d 7c 08 d2 bc
       -0.010618845 -0.08181548 0.04625267 -0.025638811
0003c0 23 fc b7 3d 1f 2f e6 3d ad 78 1a 3d dc b5 2c bc
       0.08983638 0.112394564 0.03771274 -0.0105414055
0003d0 74 9d be bb e4 f2 ed 3d f0 69 8e bd c4 7b 80 bd
       -0.0058171097 0.11618593 -0.069538 -0.062736064
0003e0 e3 2b 73 bd ed c5 90 bd 83 32 93 3d 4f 8a b2 3d
       -0.059368026 -0.07069001 0.07187369 0.087177865
0003f0 c5 24 48 ba 6d 0a 6c 3d b3 4f 4d bd 45 90 c3 3d
       -0.00076348736 0.05762713 -0.050124835 0.095490016

linear1.bias f4 [255]
000000 59 57 44 bd 5b 1a 82 bd 9f 5c 28 3e d3 6c 13 be
       -0.047934864 -0.06352683 0.16441582 -0.14396982
000010 e6 f7 1d bd 21 8d b2 3d 38 95 1c 3e e3 6a 7a bd
       -0.038566492 0.087183245 0.15291297 -0.06113709
000020 2a a2 70 3e d1 eb 00 bd 6f d5 b3 bd 70 00 5d bd
       0.2349936 -0.031474892 -0.087809436 -0.053955495
000030 c4 6a 62 3e 5d 33 b6 bd 38 3c 68 bd 85 22 23 3d
       0.2211104 -0.088965155 -0.056698054 0.039827842
000040 81 01 a1 3e 74 68 47 bc 30 21 9b 3d f2 e5 55 3e
       0.3144646 -0.0121709 0.075746894 0.20888498
000050 d5 61 95 3e 27 20 7a bd 9c d3 51 3e 9a 02 fd ba
       0.29176202 -0.06106582 0.20490879 -0.0019303143
000060 31 57 76 3d 10 9f 6b 3e e5 be 10 3e 35 3b f2 bc
       0.060141746 0.23009896 0.1413532 -0.029569248
000070 fe d7 ff 3d fe 8f f4 3c bb 0e 13 3c 26 2a a3 bd
       0.12492369 0.029853817 0.00897568 -0.079670236
000080 16 7e ae 3b 5a b4 d8 3d af a7 72 3e 24 30 ad bd
       0.005325089 0.10581274 0.23696779 -0.08456448
000090 d1 72 6e 3e 6f 15 3e 3e 02 e4 95 3e 12 7a 4d 3d
       0.23285986 0.18562864 0.2927552 0.050165243
0000a0 94 92 0b 3e 24 05 ac 3d 18 6e 45 3d c9 7a 0f bd
       0.13630134 0.08399418 0.048200697 -0.035029206
0000b0 29 3d 1a 3e 74 2c 35 3d fb b6 88 3e 6d a2 ea 39
       0.15062393 0.044231847 0.26702103 0.00044752975
0000c0 75 c6 9d 3d df 69 eb 3b 91 a3 8b 3e f1 e5 05 bb
       0.07703868 0.0071842517 0.2727323 -0.0020431245
0000d0 28 2b 72 3e bf e6 29 bd c6 47 1a 3e 0b 55 56 3e
       0.23649275 -0.041479822 0.15066442 0.20930879
0000e0 9c 24 84 bb 32 9b 88 bd b5 da df bc 91 1c 9b bd
       -0.0040326845 -0.06670226 -0.027325967 -0.07573808
0000f0 6d 3b 36 3e 7d a3 34 3d 72 aa 6f 3d f4 1f 39 3e
       0.17796107 0.044101227 0.05851216 0.18078595
000100 e7 0b 10 3e 98 4c da bc 9d f3 d4 3d 3f 11 54 bc
       0.1406704 -0.02664785 0.10398028 -0.012943565
000110 46 53 85 bd 75 10 ff 3d 6d 56 48 3e e5 35 54 3d
       -0.06510024 0.12454311 0.19564219 0.05180921
000120 ed 24 0a 3e 2e 68 a4 3d 66 73 0d 3d 88 99 37 3e
       0.13490649 0.08027683 0.03453388 0.17929661
000130 0c 32 80 bd f9 2d ad 3d 76 0b 51 3e 06 f6 8c 3b
       -0.06259546 0.08456034 0.20414528 0.004301789
000140 31 a7 ef bc 87 04 da 3d eb e1 12 3e 39 c9 98 3d
       -0.029254528 0.10645395 0.14343993 0.07460255
000150 d0 0c 10 bd 93 21 4d 3e 00 45 d3 bc f6 6e 24 3e
       -0.03516847 0.20032339 -0.025789738 0.16057953
000160 75 00 38 be 2f b7 cf 3d 54 60 cf 3b d1 9f 3b 3e
       -0.17968924 0.101423614 0.006328622 0.18322684
000170 b3 1f 48 3e db 7a 76 3d 67 c3 18 3d e1 08 ad bb
       0.19543342 0.060175758 0.037295725 -0.0052805995
000180 de b0 4d 3e 5f 06 57 bd d1 6a 41 bd 65 15 36 3c
       0.20087 -0.05249631 -0.04722101 0.011113499
000190 65 32 d4 3d 6f 99 2a bd 10 e7 50 3e b3 93 8e 3d
       0.103611745 -0.041650232 0.20400643 0.06961765
0001a0 b4 23 0a be cb c6 61 3e 10 95 b8 3e 1d f3 9b 3e
       -0.13490182 0.2204849 0.36051226 0.30458918
0001b0 1d d1 93 3d ff 52 6a 3d 96 97 e1 3d 5f e3 03 be
       0.072176196 0.057208057 0.11015241 -0.12879704
0001c0 97 12 a7 3d 4b 8c 16 3e 68 2e 9a 3e 42 7f 8d 3d
       0.081578426 0.14701955 0.3011353 0.06909038
0001d0 24 c1 0e 3d 68 f1 7f 3e 9d 20 52 3d fb 9e 88 3d
       0.034852162 0.24994433 0.051300634 0.06670948
0001e0 63 9c 13 3e aa 87 28 be ef 2b 63 3e c6 e0 8c 3e
       0.14415126 -0.16458002 0.22184728 0.2751524
0001f0 1d 49 6a bd 25 4f 19 3e 66 6e e0 3c 12 6c bc bd
       -0.057198633 0.14971597 0.027396392 -0.092003
000200 b0 96 24 3e cc 24 11 3d f3 fe 30 3e 1c 1f 06 bc
       0.16073108 0.035435483 0.17284755 -0.008186128
000210 31 eb d6 3d d5 ac 6e bd 19 9a 82 3e 55 0c ed bd
       0.10494078 -0.058270294 0.25508192 -0.11574618
000220 3d 67 a4 3d 01 1e 63 3e 5e 65 2a bc 78 86 0a 3e
       0.08027504 0.22179414 -0.010400144 0.13527858
000230 36 de 8b bd 77 9b ea 3c cb 9c 0a 3e c2 62 7d 3e
       -0.06829493 0.028638585 0.13536374 0.24744704
000240 d4 94 c3 3d 95 de 30 bd 8c ba 87 bd 73 5e 0b 3e
       0.09549871 -0.04318102 -0.06627378 0.13610248
000250 08 af 4c bd 9f 93 ce 3d 9d 43 2a 3e a0 9a 1e 3e
       -0.04997161 0.1008675 0.16627355 0.15488672
000260 2c 44 a2 3e ec 83 b2 3d ce 0d b2 3d 79 1b 98 bd
       0.31692636 0.08716568 0.08694039 -0.07427115
000270 bb d4 de 3c 73 cc 78 3e d7 6e 19 bb 9b 69 59 3e
       0.027201047 0.24296741 -0.0023412013 0.21231692
000280 37 ca 30 bd 83 fb 01 bd b4 e5 1d 3e 22 21 ff bc
       -0.043161597 -0.031734 0.15419656 -0.031143729
000290 5f 92 90 3d fe 0e 97 3e 8d 19 d6 3d 60 9e d4 bd
       0.07059168 0.29503626 0.10454092 -0.1038177
0002a0 2f 69 36 3e 91 82 ab 3e d5 14 e1 3d 49 9d 74 3e
       0.17813562 0.33498052 0.109903015 0.23888125
0002b0 6e c6 25 3e d8 87 0c be 82 b7 e4 3d cb ef 08 be
       0.16188976 -0.13723695 0.11167814 -0.13372724
0002c0 fe 06 b0 3d e9 e3 6c bd 4d c9 87 3e 82 b3 b6 3d
       0.08595084 -0.05783454 0.26520768 0.08920957
0002d0 3f 42 85 bd 4a 32 2c 3e f5 cb 4d bd 6b e4 b3 3d
       -0.06506776 0.16816059 -0.050243337 0.08783802
0002e0 5c 39 30 3e da 84 c1 3b e6 2d 39 3e 6b c9 1e 3e
       0.17209381 0.0059057297 0.18083915 0.15506522
0002f0 71 2f 7b 3e f8 6d 6e 3d a8 68 e8 3d d4 e0 9e 3e
       0.24529816 0.058210343 0.113480866 0.31030905
000300 d2 06 92 3e b1 5e ac 3d 75 e0 15 3e b1 86 fe 3c
       0.28520828 0.084164985 0.14636405 0.031070085
000310 bc 3b 94 bc 76 f6 d1 3c a2 89 67 3e 9e 17 92 bd
       -0.01809489 0.025630217 0.22611097 -0.07133411
000320 57 1d 70 3e fb b6 dc 3d 6a 00 8f 3e 81 29 3d 3e
       0.23448692 0.10777088 0.27930003 0.18472864
000330 ef 6a c4 3d 70 0c 79 3e a5 0b 08 3e 08 6f 37 3e
       0.095907085 0.24321151 0.13285692 0.17913449
000340 83 6c 0a 3e c4 e1 47 bd 26 f1 ae 3d 2e fe 97 3c
       0.13517956 -0.04879929 0.08542089 0.01855382
000350 d7 ea 81 3d c0 3f 6d 3d 3a 67 09 3e e0 39 76 3e
       0.0634362 0.057922125 0.13418284 0.24045515
000360 a5 1b ac 3c 5a 76 98 3e a0 ad 48 3e dc b4 62 3d
       0.021009276 0.29777795 0.19597483 0.055348262
000370 ab 7a 22 3d 0c f4 96 3d f0 b9 19 bd a8 a2 2f 3e
       0.039667767 0.07370767 -0.03753084 0.17151892
000380 8f 8d f7 3d 5b 3b df 3d 53 aa 95 3d 6e 7d 7b 3c
       0.12087547 0.10899993 0.073078774 0.015349729
000390 63 8b 85 3e 6c 45 3f 3e 91 b8 1a 3e 7b 8d 88 3e
       0.26082906 0.18678826 0.15109469 0.2667044
0003a0 57 2f fa 3d 57 71 e6 bd 4b 10 24 3e 8e 3a 6a 3e
       0.122160606 -0.112520866 0.1602184 0.228739
0003b0 36 8e de 3c b7 d1 21 3e 2f ed 0d be ab 5d bf bd
       0.02716742 0.15802656 -0.1386001 -0.093440376
0003c0 92 a4 85 3e e4 0e 83 3d ca 81 b9 3d f8 39 10 3e
       0.2610212 0.063993245 0.090579584 0.14084613
0003d0 d2 77 09 be 19 42 3a bd 42 a6 34 3e ef 07 3e 3d
       -0.13424614 -0.045473192 0.17641547 0.046394285
0003e0 13 37 3d 3d f0 4b 53 3e 80 74 fa bd 5a 91 ad 3e
       0.0461951 0.20634437 -0.12229252 0.33899957
0003f0 ac 03 0d 3d 32 39 64 3e 35 cd 46 3e
       0.03442733 0.22287443 0.19414218

linear2.weight f4 [3, 255]
000000 e3 ff 08 bd b2 9e 82 bd 63 3f 1d be f7 bb 83 3c
       -0.033447158 -0.06377925 -0.15356211 0.01608084
000010 6e c8 46 bd 35 a1 5b bd 98 c2 18 be 23 e1 b4 bb
       -0.04853099 -0.053620536 -0.14917982 -0.0055200025
000020 bf 71 cc bd 8a fe 65 bc 50 5d 80 bc 39 7c 5c bc
       -0.09982633 -0.014037738 -0.015669495 -0.013457351
000030 7d 5a b5 bd a3 c9 20 bc 48 08 02 bd 8d ab 05 bd
       -0.0885515 -0.009813699 -0.03174618 -0.032634307
000040 ca c9 3b be ce bd b1 bd 2f 85 93 bd a7 91 ce bd
       -0.18338695 -0.086787805 -0.07203137 -0.10086375
000050 84 25 1d be 97 d1 db bc 93 34 24 be 0b b1 aa bd
       -0.15346342 -0.026833339 -0.1603568 -0.083345495
000060 88 00 d0 bd e2 33 94 bd 44 2a c1 bd be f7 d6 bc
       -0.10156351 -0.07236458 -0.0943189 -0.02624118
000070 aa 48 86 bd 10 e5 a3 bd bb 26 ec bc ce 30 24 3c
       -0.06556828 -0.080026746 -0.028827062 0.010021402
000080 ea 7f 71 3c 42 f4 c1 bd bf aa 21 be 8f a7 95 3c
       0.01473997 -0.094704166 -0.1578779 0.018268375
000090 21 85 d8 bd a9 5a aa bd b7 9f 09 be 92 e5 a1 bc
       -0.10572267 -0.08318073 -0.13439833 -0.019762788
0000a0 3e 39 8e bd 60 ec b1 bd 1d a3 c3 bd 48 97 76 3c
       -0.06944512 -0.08687663 -0.09552596 0.015050717
0000b0 7b fd 9d bd a7 33 db bd 56 92 1f be ab 76 13 3d
       -0.07714363 -0.10703211 -0.15583166 0.036001842
0000c0 69 25 84 bd fb 76 1b bc 72 aa b4 bd 17 a1 a2 bc
       -0.06452448 -0.009488816 -0.08821572 -0.019852204
0000d0 95 63 48 bd 34 f5 51 ba f3 31 b3 bd 30 d3 89 bd
       -0.048923094 -0.00080092554 -0.087497614 -0.06729734
0000e0 68 cf 17 bd a3 ba 18 bd 7c dc a0 3a 28 02 23 3d
       -0.037063032 -0.037287366 0.0012272741 0.03979698
0000f0 a8 9d f5 bd fb 64 91 bd 3a d4 20 bd 9a 87 55 bd
       -0.11992961 -0.070993386 -0.039264895 -0.052131273
000100 94 41 ca bd d3 89 30 bd dd d0 9b bd 44 91 c2 3c
       -0.09875789 -0.04310019 -0.07608197 0.023750909
000110 03 97 15 bd 89 c4 1c be bf b3 ab bd 69 ed c9 bd
       -0.03652097 -0.15309347 -0.08383893 -0.098597355
000120 92 18 0a be 14 1d e6 3c 16 71 9d 3c c6 76 b5 bd
       -0.13485935 0.028090037 0.019218963 -0.08860545
000130 1b 73 5d bd 71 88 f9 bd 12 3b 12 be c5 e3 a4 3c
       -0.05406485 -0.12184227 -0.14280346 0.02012814
000140 d9 eb 23 bd 54 fc 92 bd 9b b0 84 bd 30 69 f1 bd
       -0.040019844 -0.07177034 -0.06478997 -0.11787641
000150 91 37 69 bd 05 0a be bd bc cc 99 bc 92 9d 2a be
       -0.056937758 -0.09279255 -0.018774383 -0.16661671
000160 03 f6 80 bc 03 1d 3d bd 1b ab b7 bc 27 86 8a bd
       -0.015742308 -0.046170246 -0.022420457 -0.06763869
000170 65 b3 66 bd 00 82 1f be 97 32 63 bd 73 db 18 bd
       -0.056323428 -0.15576935 -0.055468168 -0.037318658
000180 4d 41 d6 bd 51 8b d3 3b 3e 1a dd 3a 63 77 e3 bc
       -0.10461674 0.006455817 0.0016868783 -0.027766889
000190 6b 17 41 bd ac 90 8f 3c e3 96 91 bd 62 f8 b9 bd
       -0.047141474 0.01752504 -0.071088575 -0.090805784
0001a0 5e 40 98 bc 08 04 c9 bd 4d e6 ce bd 09 e0 d0 bd
       -0.01858538 -0.09815222 -0.1010252 -0.10198981
0001b0 ca 17 c4 bd d2 6f a0 bd 6e b5 2c bd ab 17 29 3d
       -0.0957485 -0.07833828 -0.042165212 0.041282337
0001c0 6b 8d 02 be b7 d9 11 be bb 7a c4 bd 69 d2 b0 bd
       -0.12749259 -0.14243208 -0.095937215 -0.086338826
0001d0 34 c1 93 bd 89 93 d0 bd 91 cc a0 bc c7 df 0d bc
       -0.07214585 -0.1018439 -0.019628795 -0.00865931
0001e0 8f 6d 15 be 89 c5 53 bc 33 39 b8 bd 80 74 13 be
       -0.14592575 -0.012925514 -0.08995285 -0.1439991
0001f0 82 16 e4 3c 41 04 a6 bd 60 b2 08 bd 6c 6d 10 bd
       0.027842764 -0.0810628 -0.033373237 -0.035260603
000200 1b 2b ab bd 4a 86 29 bc e3 c1 82 bd ba e0 b5 bd
       -0.08357831 -0.010346958 -0.06384637 -0.08880754
000210 af f4 26 bd 5f f4 fb ba 9a c8 29 be 0e 64 44 bb
       -0.040760692 -0.0019222609 -0.1658043 -0.0029966864
000220 c6 5f ca bd 8c 2a b6 bd 06 eb 72 bc 29 75 d4 bc
       -0.098815486 -0.08894834 -0.014826542 -0.025934773
000230 2a 84 39 bc 5b 4d 94 bb de 7d b1 bd 07 21 06 be
       -0.011323014 -0.004525823 -0.086665854 -0.13098536
000240 cc 47 ef bc 56 27 a4 bb 9b 16 55 bd 73 04 a7 bd
       -0.02920904 -0.005009572 -0.05202351 -0.081551455
000250 41 6f 80 3c 5f c8 05 be 3e 38 f0 bd 08 97 12 be
       0.01567805 -0.13064717 -0.11729477 -0.14315426
000260 e3 cf 2c be 48 c0 5d bd cb 71 e1 bd ff 03 96 3c
       -0.16876177 -0.05413845 -0.110080324 0.018312452
000270 80 92 13 3b b2 93 04 be 3f ba ff bc b7 55 0a be
       0.002251774 -0.12946966 -0.031216739 -0.1350926
000280 e5 f0 0c bd de e9 1c bd 85 d7 c2 bd cd 4b 91 bb
       -0.034409422 -0.03830897 -0.09513763 -0.004434085
000290 55 e1 dd bd c4 5a 07 be e8 df fc bd 3c 80 f2 bc
       -0.10833994 -0.13218218 -0.12347394 -0.029602163
0002a0 3e 09 df bd e3 a6 ef bd 61 76 a7 bd ab 37 01 be
       -0.10890435 -0.11701753 -0.08176876 -0.12618892
0002b0 5c d3 14 be 27 74 a5 bb f0 80 cc bd de f6 89 bc
       -0.14533752 -0.005049247 -0.099855304 -0.016841348
0002c0 3a b5 d7 bd e3 67 06 bc 18 e0 75 bd 95 95 92 bd
       -0.10532613 -0.008203479 -0.060028166 -0.07157437
0002d0 0d 91 22 bd fa 60 ab bd a1 51 1c bd 32 fa 40 bd
       -0.039689112 -0.08368106 -0.038163785 -0.047113605
0002e0 08 44 fa bd 00 06 a6 bd 91 48 73 bd 56 3d 1b be
       -0.12220007 -0.08106613 -0.059395377 -0.15160117
0002f0 48 52 03 be 1d 16 e0 bd ae 72 7a bd dd 4b f6 bd
       -0.12824357 -0.10941718 -0.061144523 -0.120261885
000300 b6 57 d9 bd a4 77 a5 bd 41 23 a7 bd 07 7a c4 bc
       -0.10612433 -0.0807946 -0.08161021 -0.023983968
000310 f4 0f e7 bb 37 89 86 bc 4b f9 2f be d0 a0 1f 3c
       -0.0070514623 -0.016422851 -0.17184941 0.0097429305
000320 a8 d9 00 be 63 93 b6 bd 59 95 85 bd b8 66 52 bd
       -0.1258303 -0.089148305 -0.065226264 -0.05136749
000330 e6 0b ed bd f4 45 97 bd 85 1b 1c be 3c 13 05 be
       -0.11574535 -0.073863894 -0.15244873 -0.12995619
000340 eb d9 f2 bd 8a 62 a4 bc 38 60 0a bc d4 c2 ac 3b
       -0.11857971 -0.020066518 -0.008445792 0.0052722488
000350 48 70 14 bd 6f 5c 91 bd f2 ee b2 bc d8 e4 de bd
       -0.036239892 -0.070977084 -0.021842454 -0.10883492
000360 09 6a e6 bd d4 19 04 be 66 eb d9 bd 74 cb bb bd
       -0.11250693 -0.12900478 -0.10640602 -0.09169665
000370 63 f1 a9 bc 8e 72 f0 bc 8e b8 2b bd 0b 03 a2 bd
       -0.020744985 -0.029351499 -0.041924052 -0.07910737
000380 f5 a3 8e bd 0b 26 c1 bd bc 1f d9 bd aa 62 de bd
       -0.06964866 -0.09431084 -0.10601756 -0.108586624
000390 ff fb 4c bd ca 84 75 bd ef 2d 05 be 44 4a 99 bd
       -0.05004501 -0.05994109 -0.13005804 -0.07484868
0003a0 e8 50 ab bd 0f 82 10 bc 01 00 71 bd 36 06 e7 bd
       -0.08365041 -0.008820071 -0.058837894 -0.112804815
0003b0 62 d3 3b bd 19 42 24 bd b0 d0 33 3d 7e 4b 36 bd
       -0.045855887 -0.040102098 0.04390019 -0.04450559
0003c0 83 d7 96 bd 9b 47 09 bd a7 50 df bd 89 e5 99 bd
       -0.07365324 -0.033515554 -0.10904055 -0.075144835
0003d0 23 27 f8 3b 5c a6 62 3c 7f d1 c9 bd 71 00 3e bd
       0.007573025 0.0138336085 -0.09854411 -0.04638714
0003e0 43 93 13 be 22 d1 01 be 80 75 5f bb e7 e5 ea bd
       -0.14411645 -0.12677434 -0.0034097135 -0.11469632
0003f0 7b 60 28 bc 9d 2b 82 bd f0 94 90 bd eb 40 ae bc
       -0.010276909 -0.06355975 -0.070596576 -0.02127119

linear2.bias f4 [3]
000000 59 0e 2a be 0c 89 94 bd 6e 14 ac bd
       -0.16607036 -0.07252702 -0.08402334
