oldmodel10-10.pth (torch, 43899 bytes, 8 tensors)

net.0.weight f4 [50, 100]
000000 80 44 a1 bd eb 31 45 3f 51 ca 93 3f 33 c8 ac bf
       -0.078743935 0.77029294 1.1546117 -1.3498596
000010 ce df 8e 3f 07 91 46 3f d5 d5 83 3e 84 04 92 3f
       1.116205 0.77565044 0.25749078 1.1407628
000020 32 be 1b be 62 66 07 3f 0e 3c 59 3e c6 86 6e bf
       -0.15209273 0.528906 0.21214315 -0.931744
000030 58 d3 a0 be f9 91 5a bf c7 4d 1b c0 62 60 ed bf
       -0.31411242 -0.85378987 -2.4266222 -1.8545039
000040 8a ea a4 bf 04 b9 77 3f 29 a3 89 3f a2 8f 73 3f
       -1.2884076 0.96766686 1.0752918 0.9514104
000050 ff 4a 94 c0 f9 c6 58 bf 92 ac 46 bf 08 97 35 3f
       -4.634155 -0.8467861 -0.7760707 0.7093358
000060 ca 91 7d bf 6d 55 03 c0 fc 35 92 bf 7d 64 ad 3d
       -0.9905058 -2.052089 -1.1422725 0.08466432
000070 98 fb c2 bf e3 00 66 bf b4 9d 0c 40 18 94 36 3f
       -1.523303 -0.89845103 2.1971254 0.71319723
000080 78 28 d1 be b4 92 8f bf 3b b5 03 c0 2b 84 e9 bf
       -0.40851188 -1.1216645 -2.0579364 -1.824346
000090 e8 8e c9 bf a0 9c 13 3d 32 42 46 bf f2 e1 cb 3f
       -1.5746737 0.03603804 -0.77444756 1.5928328
0000a0 2e bd d0 bf 6c 54 a3 bf fe 62 38 3e ae 71 12 c0
       -1.6307733 -1.2760139 0.18006513 -2.2881885
0000b0 55 92 47 bf 3c f5 41 c0 d7 6f fd be d9 08 c8 3e
       -0.7795766 -3.030593 -0.4949939 0.3906925
0000c0 d8 23 c3 bf a6 5d 07 bf 75 59 2f 3f 27 62 18 3f
       -1.5245314 -0.5287727 0.68495876 0.5952477
0000d0 26 04 19 3f 1c ba fc bf 06 e9 24 c0 2a 0e 92 c0
       0.59771955 -1.9744296 -2.5767226 -4.564229
0000e0 21 10 2d c0 1d 34 f5 bf 5d 65 7a bf 13 ba 6a 3f
       -2.7041094 -1.9156529 -0.9781092 0.91690177
0000f0 eb 44 c2 3f 44 23 44 bf e9 d5 9e bf 2a c0 89 bf
       1.5177282 -0.7661631 -1.240903 -1.0761769
000100 ef 95 18 3f 51 13 7a c0 dd 8b d8 bf 3f 92 50 c0
       0.5960378 -3.907429 -1.6917683 -3.2589262
000110 95 67 8d bf 4e de 68 3f bf 06 8d 3e 49 2e 0c 40
       -1.1047236 0.9096421 0.2754421 2.190325
000120 fd e6 e4 be bf 5a da c0 e5 b1 13 c0 3c a1 14 c0
       -0.4470748 -6.8235774 -2.3077328 -2.322341
000130 1a d0 dd bf 1a bc 0f c0 05 f3 a4 bf 1b d6 db bf
       -1.7329133 -2.2458558 -1.2886664 -1.7174715
000140 3b 24 16 3f 46 67 d8 3e 7b 25 9c 3f 87 c0 89 be
       0.58649033 0.4226629 1.2198938 -0.269047
000150 d6 49 fd bf bc 3c f6 bf e5 7d 17 c0 92 cc b0 3d
       -1.9788158 -1.9237285 -2.367059 0.08632769
000160 42 23 1c 3f 50 44 82 3f 9e 9c e4 be ef 25 03 40
       0.609913 1.0177097 -0.4465074 2.0491903
000170 71 78 0f 40 5b 56 cc 3f 1b ab 63 3f 5d a2 11 3f
       2.2417262 1.5963854 0.8893296 0.5688837
000180 1c 07 9c be fe 22 6c bf 37 1a 2d 40 d0 27 60 3f
       -0.30474174 -0.92240894 2.704725 0.8756075
000190 3b ff 12 3f 1e dc aa bf a0 8d 9c 3f 2f 56 98 c0
       0.574207 -1.3348424 1.223072 -4.7605205
0001a0 3d 3e f4 be 8f 8b 23 c0 87 a8 e7 bf 78 26 a2 bf
       -0.47703734 -2.555393 -1.8098305 -1.266799
0001b0 e6 1a 87 bf 19 71 ab bf b5 25 3c be 19 9c b6 bf
       -1.0555084 -1.339389 -0.18373759 -1.4266387
0001c0 e7 c1 c9 be e4 d8 45 bf 4b 7d c6 be da 74 1f bf
       -0.39405748 -0.77284074 -0.38767466 -0.62287676
0001d0 f3 08 4e bf 13 b4 e9 3d ab be 71 be 31 2c d7 be
       -0.80482405 0.114112996 -0.2360789 -0.42025903
0001e0 cd dd 7d bf 1d 43 db 3e 72 73 ac bf 61 e6 e9 bf
       -0.99166566 0.4282464 -1.3472731 -1.8273431
0001f0 db 13 49 bf dc 58 af bf 41 f7 b0 bf 16 a9 12 c0
       -0.7854592 -1.3698993 -1.3825456 -2.2915702
000200 94 f5 d7 3e 30 21 41 bf 7c 53 0f bf 4b c1 69 be
       0.4217955 -0.75441265 -0.5598676 -0.22827642
000210 b1 f4 5c bf 67 a6 6e c0 20 61 85 bf bc f2 2e bf
       -0.8631087 -3.7289064 -1.0420265 -0.68339133
000220 76 d4 b8 bf 5e e4 2a bf cf 9a 94 bc 02 10 e6 be
       -1.4439838 -0.6675471 -0.018140225 -0.44934088
000230 4d fd 41 c0 e5 ac 9c bf 2f 54 49 c0 60 d9 08 3f
       -3.0310853 -1.2240263 -3.1457632 0.5345669
000240 7e da 8e bf 69 9a cf bf ed f3 92 bf a2 90 28 3e
       -1.1160429 -1.6218997 -1.148069 0.16461423
000250 e0 6c 08 bf 3c 2c 9e be 5b 4f e2 3f fc e7 09 be
       -0.5329113 -0.30893123 1.7680467 -0.13467401
000260 b0 5e 8b c0 78 49 04 bf 17 8f 6b bf 70 04 c4 bf
       -4.3553085 -0.51674604 -0.9201521 -1.5313854
000270 27 03 b9 bf 8b d8 bb bf 81 5a a4 bf 0c a5 90 be
       -1.4454087 -1.4675459 -1.284012 -0.2825092
000280 27 f9 36 3f 34 73 12 bf e9 86 ab bf b4 10 8c bf
       0.71473926 -0.57207036 -1.3400546 -1.0942597
000290 34 89 bf bf 8b 18 dc bf 7b a1 0b bf 5e 77 1a bf
       -1.4963746 -1.719499 -0.54543275 -0.6033839
0002a0 35 c3 c2 bf fa d9 8d be ec 7b f8 3e 97 75 e9 be
       -1.5215822 -0.27705365 0.48532045 -0.45597526
0002b0 c8 7e 06 bd 6d a3 48 bf d0 b6 59 be 60 b7 79 bf
       -0.03283575 -0.7837437 -0.21261144 -0.97545433
0002c0 cd b1 19 3e c3 ab 31 bf 6d 44 51 bd 1d c1 12 bf
       0.15009232 -0.6940271 -0.051090647 -0.5732592
0002d0 77 40 7f 3d bc 31 8e bf 92 61 8a bf c4 1f 37 3d
       0.062317338 -1.1108928 -1.0811026 0.04470803
0002e0 04 1e 48 3f 84 47 92 3e 79 71 2e 3e 2f 2e e3 bf
       0.781708 0.28570187 0.17035474 -1.7748469
0002f0 ee fd d6 bf 1e df 54 3f f8 10 f7 bf 45 8a 81 3f
       -1.6796243 0.8315295 -1.9302053 1.0120322
000300 86 fa a9 bf 07 3e 80 bf 44 bf e0 3e 92 76 81 be
       -1.3279579 -1.0018929 0.43895924 -0.25285774
000310 be 82 41 bf 4b 9a e1 bf 8f f1 89 3f fd 65 26 bf
       -0.7559012 -1.7625211 1.0776843 -0.6499937
000320 64 27 61 be 98 c9 d9 3e cb 22 28 bf 13 0a 0e bf
       -0.21987683 0.42536616 -0.6567809 -0.5548412
000330 a2 88 26 bf 78 39 b1 be 8b 6c d0 bf ab 79 c2 bd
       -0.65052235 -0.34614158 -1.6283125 -0.094958626
000340 1a cd 6d bf 43 9d 91 bf f6 41 25 bf ed 77 7a 3d
       -0.92891085 -1.1376117 -0.64553773 0.061149526
000350 c2 64 67 bf 06 6d 9f bf d8 be 57 be 2f 04 42 3d
       -0.9038812 -1.2455146 -0.21068895 0.04736727
000360 13 41 17 be 1e 68 cb 3d 44 97 82 3b 1a 82 a1 be
       -0.14770918 0.09931968 0.0039853174 -0.31544572
000370 10 95 51 bf 1a 83 b6 bf b4 f4 7d bf 82 0d c9 bf
       -0.81868076 -1.4258759 -0.9920151 -1.5707247
000380 b2 3b 81 bf c1 2a c9 bd c4 7b de be b6 76 e4 bf
       -1.0096343 -0.09822608 -0.434538 -1.7848728
000390 ff 79 6e bf 27 6f 5d bd 2d a9 b6 bf 30 14 07 3f
       -0.931549 -0.05406108 -1.4270378 0.5276518
0003a0 57 ad 56 bf 41 3f 13 be 72 17 47 bf 08 12 3a bf
       -0.83858246 -0.14379598 -0.7777015 -0.72683764
0003b0 54 6a f9 be 3e 8e dd bd b6 77 42 3e 6f 0b 67 3e
       -0.48713934 -0.10818146 0.18990979 0.22562955
0003c0 44 64 a4 bd 3d b7 89 be 31 ea ae bf 22 f6 1b be
       -0.08026937 -0.26897612 -1.366522 -0.15230611
0003d0 c1 f4 4c bf dd 36 85 bf e7 21 c6 be fa f2 cf be
       -0.80060965 -1.0407368 -0.3869774 -0.40615064
0003e0 5b 83 e3 3b 54 c9 3c be dc 4a 8d 3c ed 8b fd be
       0.006943149 -0.18436176 0.01724761 -0.49520817
0003f0 84 0a 2c bf 6f 99 03 be 70 25 c3 bf 3f d7 16 c0
       -0.67203546 -0.12851499 -1.52458 -2.3568876

net.0.bias f4 [50]
000000 55 3e 51 c0 18 28 92 c0 83 60 7a c0 c0 db 9a bf
       -3.2694294 -4.5673943 -3.9121406 -1.2098312
000010 20 18 2a c0 f1 e1 b8 c0 9b 6b a9 c0 fc 33 be c0
       -2.6577225 -5.7775807 -5.2943854 -5.9438457
000020 5c c4 ac c0 32 9d 6a c0 84 96 e1 c0 ce 0b 9b bf
       -5.3989697 -3.6658444 -7.0496235 -1.2112978
000030 5c a3 d8 3f cc bb c1 c0 5e ee cf c0 d1 40 d8 be
       1.6924853 -6.0541744 -6.4978476 -0.4223695
000040 a1 ef bd c0 33 1e ae c0 85 5e 02 c0 d4 0e cc c0
       -5.9355016 -5.4411864 -2.037019 -6.37681
000050 89 41 ab bf bf 3b ca bf fc bc cd c0 0e 5f 8a c0
       -1.3379375 -1.5799483 -6.4293194 -4.3241034
000060 72 e5 97 c0 90 fc c4 c0 d0 99 b8 c0 4d 12 17 c0
       -4.7467585 -6.1558304 -5.768776 -2.360492
000070 9c 18 a6 bf be 1e 9a c0 c1 c3 0e c1 53 40 87 c0
       -1.297626 -4.8162527 -8.9227915 -4.226602
000080 43 d5 90 c0 bb 17 cd c0 35 95 01 40 69 e9 cb c0
       -4.526033 -6.409147 2.0247319 -6.3722425
000090 2a ef ad c0 f3 05 7a c0 bd 57 28 c0 e8 49 b2 c0
       -5.435445 -3.906613 -2.6303551 -5.5715218
0000a0 9b b9 c1 bf 39 85 0e c0 8b 82 2b bf 54 a2 9b c0
       -1.5134767 -2.2268813 -0.6699607 -4.8635654
0000b0 53 5a 20 c0 77 62 64 c0 4d d9 81 bf 12 10 86 c0
       -2.505513 -3.5685098 -1.014444 -4.1894617
0000c0 68 17 8a c0 5a 53 b1 c0
       -4.315357 -5.5414248

net.2.weight f4 [50, 50]
000000 ec b5 cf be e6 5e a3 be ad 54 6e bf bb 0c 42 3b
       -0.40568483 -0.3190834 -0.93097955 0.0029609639
000010 39 a5 2d be ef d0 9c bf b9 8f db bf 66 86 0b bf
       -0.16957559 -1.2251261 -1.7153236 -0.5450195
000020 36 1c 07 bf a6 06 b0 bf 7e aa 97 be 81 cc d5 3d
       -0.5277742 -1.3752029 -0.29622263 0.10439397
000030 c1 82 01 c0 b7 9d 75 bf 0d c0 56 3d 36 65 d0 be
       -2.0236056 -0.9594378 0.052429248 -0.40702218
000040 4e 5a 87 be b8 fc b6 be c5 54 56 bf bc b6 a7 be
       -0.26436085 -0.35739684 -0.837231 -0.32756603
000050 f8 27 95 bf 0e 9a af be 08 61 62 bd da 0f d0 bf
       -1.1652822 -0.34297222 -0.055268317 -1.6254838
000060 4c cc d8 bf 24 f7 3c bf c0 83 2f be b5 b6 9c bf
       -1.6937346 -0.73814607 -0.17140102 -1.2243258
000070 77 f2 02 be 3d 37 49 bf fe a9 d3 bf 64 9c d3 bf
       -0.12787805 -0.7859991 -1.6536252 -1.6532102
000080 3a bc 0c 3d 1e bd 88 bf 69 1d 24 3e 6b bd c7 bf
       0.034359194 -1.0682714 0.16026844 -1.5604681
000090 6e f9 9c be da 98 fa be ec 55 e6 be 53 99 00 bf
       -0.3065905 -0.4894474 -0.44987428 -0.50233954
0000a0 4a 8d 35 3e 7c 81 7b be d5 1f 35 3e ef 9d b8 be
       0.17729679 -0.24561113 0.17687924 -0.36057994
0000b0 16 3a 95 3e f4 ef 62 bf a9 8e 5b 3e 37 63 b3 bf
       0.2914588 -0.8864739 0.2144114 -1.4014653
0000c0 1d 03 d3 3d 9b 8e f6 bd 3a af 98 bf e2 83 ab bd
       0.10303328 -0.120389186 -1.1928475 -0.08374764
0000d0 ad 9f 03 be c4 2b 84 3e 5f c0 c3 be be 4d 8c bf
       -0.1285388 0.2581464 -0.38232705 -1.0961225
0000e0 37 5b b1 bf d2 a1 7f bf c9 c5 01 3f e2 fa 72 be
       -1.3855962 -0.99856293 0.5069242 -0.23728517
0000f0 90 9d e5 bd 29 83 d5 3e f8 a1 6b bf e2 96 07 be
       -0.11211693 0.4170163 -0.9204402 -0.13241151
000100 85 44 e3 bd ce 0d c8 bf a3 d0 df bd 1a c5 0a bf
       -0.110970534 -1.5629213 -0.10928466 -0.54207003
000110 e6 d5 d6 be 23 cc 87 bf 64 77 a7 bf 5b 42 48 bf
       -0.41960067 -1.0609173 -1.308331 -0.7822625
000120 d8 ac 7e be 84 42 d2 bd 68 e5 61 bf 68 aa 22 be
       -0.24870622 -0.10266593 -0.8824067 -0.15885317
000130 c6 47 c0 be 9c 99 43 be ce 85 00 3e 17 80 3a bf
       -0.3755476 -0.19101566 0.12551042 -0.728517
000140 e1 3a 7e bf 56 24 9b bf f2 29 80 bf 04 b1 2c bf
       -0.9930859 -1.2120464 -1.0012801 -0.67457604
000150 f5 ab 99 bf f3 94 2a bf de 0d 11 bf d3 16 c5 be
       -1.2005602 -0.6663353 -0.56661785 -0.38493976
000160 5d 6e 32 bf c4 34 61 be ac df 9a bd 18 90 8a bf
       -0.6969965 -0.21992785 -0.07562193 -1.0825224
000170 83 8d 88 be a6 e9 fe be df e1 13 bf fd f7 1d be
       -0.26670465 -0.49787635 -0.57766527 -0.15426631
000180 73 6a 79 3d 06 e7 d4 bf 58 f7 7a be 9e 34 9d 3e
       0.060892534 -1.6633003 -0.24508417 0.30704206
000190 47 0e 52 bf c4 d7 da be 3e 68 dc 3d 95 3e 0c 3f
       -0.82053035 -0.4274274 0.1076207 0.5478299
0001a0 8d 5c 18 3e 56 f5 96 be 32 1f 55 bf 0b 2c 89 3d
       0.14879055 -0.2948405 -0.83250725 0.06697854
0001b0 ae c9 24 3e 21 14 a4 3d fd f7 93 3e 55 5a bc be
       0.1609256 0.08011652 0.28900138 -0.36787668
0001c0 75 e4 08 bf 97 74 c2 be 43 be 8e be 6e 26 9c be
       -0.534736 -0.37979576 -0.27879533 -0.3049807
0001d0 3c 6b 32 3c a0 f4 da 3d 12 fb 54 be bf 97 43 bf
       0.0108898245 0.1069119 -0.207989 -0.7640342
0001e0 c2 dc 1e bf 40 a2 33 bf af 09 a6 be 8e d5 2e bf
       -0.620556 -0.7016945 -0.32429263 -0.6829461
0001f0 63 76 82 bd d4 45 76 bf 37 57 43 bf 9a 98 b0 bd
       -0.06370237 -0.962003 -0.76304954 -0.086228564
000200 8f 27 5a 3c f6 c4 90 3e 7d 95 da be 31 5d 84 bf
       0.013315096 0.2827527 -0.42692176 -1.034094
000210 b3 82 bb bd 56 e4 74 3e e2 8f 5e bf 66 d6 61 bf
       -0.09155788 0.23915228 -0.869383 -0.8821777
000220 6a 67 91 be 8d 25 4d bf ed f7 bc be 35 0d 9f 3e
       -0.2839921 -0.8013542 -0.36907902 0.31064764
000230 40 e8 7a 3c 3b 24 48 bf 11 97 96 be df 1c 0f be
       0.015314162 -0.78180283 -0.2941213 -0.13975857
000240 bd 62 2b 3e 7f 0d bf 3d af 8e 2f 3e 1d c4 4d bf
       0.16736884 0.09328746 0.17144273 -0.8037737
000250 d9 5e 75 bd 43 2b 84 be 50 83 7e 3d ec d3 08 bf
       -0.059904907 -0.25814256 0.062136948 -0.5344837
000260 27 e3 02 bf 48 21 8d 3e 10 ef 17 bf 7e c9 5c bf
       -0.51127857 0.27564454 -0.59349155 -0.8624495
000270 c7 1a 8a bf af 57 0b be 1b 98 c8 be 3e d5 21 bc
       -1.0789422 -0.13607667 -0.39178547 -0.009877501
000280 f2 fd bf 3e 50 a0 08 3e a3 93 aa bf fa ad 38 bf
       0.37498432 0.13342404 -1.3326305 -0.7214047
000290 fb 35 d3 be a6 ce 27 bf e7 aa a6 bd 25 b2 5d be
       -0.4125212 -0.65549695 -0.08138066 -0.21649988
0002a0 f1 db 29 bc d2 9a 2a 3d 4d 6c 62 bf 76 d2 8e bf
       -0.0103673795 0.041651554 -0.88446504 -1.1157978
0002b0 9c bb b0 bf 42 39 cd be ff 57 37 bf 20 34 03 bf
       -1.3807254 -0.40082747 -0.71618646 -0.5125141
0002c0 d4 77 a6 be dc 1d 07 bf 8c f8 5a 3d b7 eb 28 bf
       -0.32513297 -0.52779937 0.05345969 -0.6598467
0002d0 36 65 10 bf 1b 11 3b bf aa a2 34 bf d1 d3 8e be
       -0.56404436 -0.73072976 -0.70560706 -0.27895978
0002e0 46 71 92 bf 05 0a ff be 6e f9 bb be 1f 9c c4 bf
       -1.1440818 -0.49812332 -0.36713737 -1.5360144
0002f0 3b 4e 21 be 26 2b 34 bc d4 1c ad 3d a2 da 2a bf
       -0.15752499 -0.0109966155 0.08452764 -0.6673986
000300 6f 74 45 3f a2 28 2a bf a7 ec ea be 89 41 c4 be
       0.7713079 -0.6646825 -0.45883676 -0.3833125
000310 95 4d 37 be a3 6c 54 bf ec 26 2e 3e fc 61 a6 3e
       -0.17900689 -0.82978266 0.17007035 0.3249663
000320 f7 d7 9c be e5 9f 0d bf e3 f9 98 be 5e 7d 0a be
       -0.30633518 -0.55322105 -0.29878148 -0.13524386
000330 e9 25 ae be cd 56 88 be 4c fd 47 bf 14 cd 24 bf
       -0.34013298 -0.26628724 -0.78120875 -0.64375424
000340 29 ea f2 be 3c 35 85 bb b7 35 cf be e4 61 24 ba
       -0.47444275 -0.004065184 -0.4047067 -0.00062706904
000350 ed e7 a5 be b5 56 2f bf 72 35 b1 be 35 43 1f bf
       -0.32403508 -0.6849168 -0.34611088 -0.62211925
000360 dd 46 e4 be 24 94 3b bd 7e 3c cb be 70 d6 e4 be
       -0.44585314 -0.045795575 -0.3969459 -0.44694853
000370 7f 95 4c bf 39 5f 3d bf ba 63 30 bf 52 28 17 bf
       -0.7991561 -0.73973423 -0.6890217 -0.590459
000380 e0 fc 86 be 77 bd 0b bf 8c 4a 9c be be fe 44 bf
       -0.26364803 -0.54585975 -0.30525625 -0.76951206
000390 94 af 51 bd 1b de d5 be e5 37 35 bf b3 99 03 bf
       -0.051192835 -0.41771016 -0.70788413 -0.514064
0003a0 34 09 2b bf 5d 7f 7c bc a8 b6 51 bf 6d 38 25 bf
       -0.6681092 -0.015411225 -0.81919336 -0.64539224
0003b0 1c 86 15 bf 61 e5 77 bf a5 ef f8 be 12 15 57 3e
       -0.5840776 -0.9683438 -0.48620334 0.21004131
0003c0 4e f5 28 3d 42 68 61 bf 8b 22 1d be d4 91 85 bf
       0.041249566 -0.8804971 -0.15345208 -1.0435128
0003d0 3f dc d2 be c6 5e 84 bd 51 14 19 be 08 38 3c bf
       -0.4118366 -0.06463389 -0.14949156 -0.73522997
0003e0 97 f4 c4 be af 95 c4 bd 40 9e ec be 18 30 1a bd
       -0.38467857 -0.095988624 -0.46214485 -0.037643522
0003f0 12 80 c7 be fd 97 1f be 2f f4 19 be 67 f0 a8 be
       -0.38964897 -0.15585323 -0.15034555 -0.32995912

net.2.bias f4 [50]
000000 54 57 c0 bf 3e 64 0d c0 3d f9 c8 bf 34 34 b2 bf
       -1.502665 -2.2092433 -1.5701061 -1.3922181
000010 aa 81 2f bf f9 14 06 bf a6 ca 58 bf d8 0e 2f bf
       -0.68557227 -0.5237575 -0.84684217 -0.68382025
000020 9c 25 b9 bf 47 66 98 bf 82 2a 56 bf 87 ee 24 bf
       -1.4464602 -1.1906213 -0.8365861 -0.64426464
000030 ef 2e e2 bf cc 38 e1 bf 34 ef 83 bf 1a 66 34 bf
       -1.7670573 -1.7595458 -1.0307374 -0.70468295
000040 f6 6c b2 bf 0f 6c 12 c0 28 fb 33 bf 86 e3 3c bf
       -1.3939502 -2.2878454 -0.7030511 -0.73784673
000050 6c 8f 75 bf b0 56 5d bf e0 3b ad bf de d4 dc bf
       -0.9592197 -0.864604 -1.3533897 -1.7252462
000060 5e 9e 5e bf b1 7b 70 bf 80 26 b4 bf c5 c5 0e bf
       -0.869604 -0.9393874 -1.4074249 -0.5577052
000070 7b 3e 01 bf 88 84 90 bf f3 a9 ea be 4b ee dc bf
       -0.5048596 -1.1290445 -0.45832786 -1.7260221
000080 ff 28 7e bf f7 c7 3a bf 24 2f 55 bf 1c 87 99 bf
       -0.99281305 -0.7296137 -0.83275056 -1.1994357
000090 99 30 e1 3f 6d 87 d6 be a9 69 05 c0 cf a1 a5 bf
       1.7592956 -0.41900197 -2.084574 -1.2940005
0000a0 f0 d4 e3 bf 95 82 e6 bf d9 03 3f bf 23 7e 85 bf
       -1.7799358 -1.80086 -0.74615246 -1.0429119
0000b0 de 96 bb bf 4a 37 3c bf 39 62 b0 be 36 8f fb be
       -1.4655416 -0.73521864 -0.34449938 -0.491327
0000c0 7c ec 54 bf 47 40 9a bf
       -0.83173347 -1.2050866

net.4.weight f4 [50, 50]
000000 d6 d6 88 be 6c 17 88 bd 47 b6 67 bd ae d9 b8 be
       -0.26726407 -0.06645092 -0.056570318 -0.36103576
000010 a6 84 cb bd d0 b5 13 bf a4 c2 ed bd f2 0c 0e be
       -0.0993741 -0.576993 -0.116093904 -0.13872126
000020 6f 74 c2 bd ef cf fd bd 3d 09 cd bc 01 84 e5 3d
       -0.09494864 -0.12393176 -0.02502882 0.11206818
000030 42 b9 1b bd e6 e8 f9 3e df b5 d7 bd 1c e2 32 3d
       -0.038018472 0.488105 -0.10532736 0.043672666
000040 d9 97 9f be 1d 84 cd bc b8 34 d2 3e 75 60 16 3e
       -0.31170538 -0.02508741 0.41055846 0.14685233
000050 a8 01 9a bd 8c 56 f0 39 3b 0a ac be dd 0d 2e 3d
       -0.07519847 0.0004584085 -0.33601555 0.04249369
000060 0f 36 66 be 9a c7 ee bd 53 78 dd bd c4 dc a8 3d
       -0.22481559 -0.11659165 -0.10813966 0.08245233
000070 75 b0 87 be 9a cd 0c be db b7 1f bf 6f 41 6d bb
       -0.26501814 -0.13750306 -0.62389916 -0.0036202332
000080 e7 1f 81 bd 22 d1 aa bd 49 00 83 3b 24 f6 bb be
       -0.06304913 -0.0834067 0.0039978367 -0.36711228
000090 47 64 98 be 10 ad 9e be d4 7c de be 3e c3 86 be
       -0.29764006 -0.3099141 -0.4345461 -0.26320833
0000a0 9d fd 58 be 54 19 71 be ef cb 34 be f8 ae 50 be
       -0.21190496 -0.23544818 -0.1765592 -0.20379245
0000b0 49 bf 0c be 6b ea 77 be 6c 20 35 3c b9 58 8d bd
       -0.13744844 -0.24210517 0.011055093 -0.06901688
0000c0 4f 5f ab be d6 c7 06 bd a3 90 06 3d c9 29 a6 bc
       -0.33471152 -0.032905422 0.03285278 -0.020283597
0000d0 34 63 48 be e5 32 af be 7c 24 02 bc 25 bb 71 bc
       -0.19569093 -0.34218517 -0.007943269 -0.014754091
0000e0 37 bc 1b be 4a ee 2f be a1 17 77 be f5 8a de bd
       -0.15208517 -0.17180744 -0.24130107 -0.10866348
0000f0 8d 24 1d be f6 c6 6e 3d b4 3e be bd cd 1f ef 3c
       -0.15345974 0.058295213 -0.092893034 0.029189968
000100 41 94 1e bf c1 83 e1 3a a0 d5 09 be df 17 9b bd
       -0.6194497 0.0017205403 -0.13460398 -0.075729124
000110 e8 2d e7 bd 1d fb 88 be a1 a3 14 be a0 57 81 3d
       -0.11288053 -0.26754084 -0.14515544 0.06315541
000120 1b a9 37 be ab 1b cb 3d 51 31 df bd 0b c1 2a be
       -0.17935602 0.099173866 -0.10898078 -0.16675203
000130 ad 54 03 bd e4 54 44 bf 20 60 8f be cf 74 0e be
       -0.032063175 -0.7669203 -0.28003025 -0.13911746
000140 16 ee b0 bb b2 b2 2e 3e d8 3e cf bd 2a 84 0f 3e
       -0.005399476 0.17060354 -0.10119408 0.1401526
000150 7b db 54 3d 63 ef 83 bc 5a 4c d4 be 93 37 66 be
       0.051967125 -0.01610536 -0.41464502 -0.22482137
000160 67 e0 84 bc 71 54 a9 bd 99 69 44 be 7d ae ad be
       -0.016220285 -0.08268059 -0.19180907 -0.33922186
000170 84 31 ff bd 45 80 1b bd d4 f5 1f 3d bf fc 1d be
       -0.12460616 -0.037964124 0.0390528 -0.15428446
000180 ba 58 0b 3d 8a ac 0c be f0 56 1b 3e 11 84 bc bd
       0.034020163 -0.13737693 0.15169883 -0.09204877
000190 e7 b3 b8 bd 5c e1 92 bd aa 27 c9 be ac 74 0d be
       -0.09018689 -0.0717189 -0.39288074 -0.13814038
0001a0 24 7f ac bd 43 2e 2a be af c3 6f bb a5 5e 4a bd
       -0.08422688 -0.1661921 -0.0036585142 -0.049406666
0001b0 33 03 a7 bb 69 28 5a 3d c3 e6 2a be 9c 6b 79 bc
       -0.005096817 0.053261194 -0.16689591 -0.01522341
0001c0 4b a6 64 3d 78 86 24 3d d8 62 87 bc f5 39 f8 3d
       0.05582265 0.040167302 -0.016526625 0.121204294
0001d0 ac a9 cf 3d dd 63 1f be 41 1a 3e bc 5b c4 45 be
       0.10139784 -0.15565439 -0.011602939 -0.19313185
0001e0 63 89 d2 bd 3f 60 ac 3c 44 c4 d9 be 29 44 39 3b
       -0.10280111 0.021041987 -0.4253255 0.0028269386
0001f0 41 ef 14 3d cd 7c f3 3b 74 09 86 3d 5c 26 10 be
       0.036360983 0.007430649 0.06544772 -0.14077133
000200 12 ef c0 3d df 09 de bd 2b 07 cb 3d ac 33 b2 bd
       0.09420599 -0.108417265 0.099134766 -0.08701262
000210 d7 66 18 3e ea ae c6 3b 0b 58 b0 3c 91 2b 6a bc
       0.1488298 0.006063332 0.021526357 -0.014292614
000220 f1 ca 7d be 42 1d dd be 94 fc f3 bc d5 df 8c 3c
       -0.24784447 -0.43186384 -0.029783525 0.017196575
000230 69 a7 23 bd 2e 02 3b be 38 d6 07 be 67 b4 86 bd
       -0.039954577 -0.1826255 -0.13265312 -0.06577378
000240 4f 01 2f be 6b bc d1 3a 10 56 d0 bd fe 01 6e ba
       -0.17090343 0.0016001588 -0.10172665 -0.00090792764
000250 3b f5 91 3e ff 68 82 3d 44 b3 1f be 60 58 83 3d
       0.28507408 0.06367683 -0.15595728 0.064133406
000260 27 7b aa be 6b c3 5a be 1e 70 01 bc d5 2a 91 be
       -0.33297083 -0.21363609 -0.007900266 -0.2835299
000270 35 9e 81 bd d6 31 7a 3c 2c ce 46 be c7 53 a9 bc
       -0.06329004 0.015270671 -0.19414586 -0.020669831
000280 c1 b7 d1 3c 22 05 97 3d b5 7d 1f 3c 23 09 d4 bd
       0.025600316 0.07374026 0.009734561 -0.10353305
000290 bc ac 4c be 3e 6d 9e be 22 5a eb be 6d c8 29 be
       -0.19987768 -0.3094272 -0.45967203 -0.16580363
0002a0 d6 2d e6 3e 3c 98 3f 3e 9f fc 0e 3d af d0 6d 3c
       0.44956845 0.18710417 0.034908887 0.014515086
0002b0 5b d2 59 bf 40 b2 eb bd be 03 4c 3d 38 25 72 3d
       -0.850866 -0.11508608 0.049808256 0.059117526
0002c0 5b f2 94 be f1 e6 3b be 66 2d ec be 71 93 1e 3e
       -0.29091153 -0.18349816 -0.46128386 0.15485932
0002d0 49 7d 91 be fc 64 b0 bd cf 70 b1 3c 5b fa f7 bd
       -0.28415897 -0.08613011 0.021660237 -0.121082984
0002e0 7a 2e 07 3c 48 ee 2d be d3 e2 a2 be ff 2f f6 be
       0.008250827 -0.16985428 -0.31813678 -0.48083493
0002f0 16 35 e3 bd 50 48 76 bf 16 63 db bc f0 7c 40 be
       -0.1109411 -0.9620409 -0.026780646 -0.1879766
000300 0b 9f 9e bd 64 f9 5d be b2 5e a1 be e9 92 87 be
       -0.07745179 -0.21677166 -0.3151756 -0.2647927
000310 5a be 83 3d f3 6f 7f bd 4f 96 b1 be c5 7f 34 bf
       0.06432791 -0.062362622 -0.3468499 -0.7050746
000320 cc 1f 38 be 79 41 1f bf 66 1d 93 bd 44 98 0a bf
       -0.1798088 -0.6220928 -0.07183342 -0.5413859
000330 34 2e 59 3d 2b a8 26 3a 78 bb a5 3e e4 46 d0 be
       0.05302258 0.00063574564 0.3236959 -0.40679085
000340 7d 97 c5 3d 9a a0 2d be 7d 70 a3 be 1e f0 6d be
       0.09648035 -0.16955796 -0.3192176 -0.23236129
000350 90 6b 1e 3b b8 d9 cb be e1 12 31 bf cf a9 88 bd
       0.0024173 -0.39814544 -0.6916943 -0.066730134
000360 64 5e d8 bc ef 7d 2e 3a d0 2e 0b be de 30 34 bf
       -0.026412196 0.0006656339 -0.13592076 -0.70387065
000370 f8 9d bb 3d a7 ac 53 3e 52 b8 00 bf d7 7a a6 be
       0.091609895 0.2067133 -0.5028125 -0.32515594
000380 cb 58 19 3d cc 56 9e be 91 f1 32 bd f2 69 6f be
       0.037438195 -0.30925596 -0.043687407 -0.23380259
000390 b1 bb a5 be 8f 82 ca 3d ff 73 23 3f ef bc 11 3f
       -0.3236976 0.09888183 0.6384887 0.56928915
0003a0 4c fd 99 3e dd d0 98 3d 97 f2 cc bd d9 af a8 bf
       0.30076063 0.074617125 -0.10007208 -1.3178664
0003b0 8a 95 12 bf 72 80 ef 3d 82 8f 47 bf 3a 84 46 bf
       -0.5725943 0.11694421 -0.7795335 -0.7754551
0003c0 48 81 07 bf 1d 05 9a bd a2 e5 b8 bd 51 96 29 be
       -0.5293164 -0.075205065 -0.09028174 -0.16561247
0003d0 1d 44 8b be 81 11 36 bd 56 2e f2 bd 03 19 d7 bd
       -0.27200404 -0.044450287 -0.11825244 -0.105028175
0003e0 e3 05 75 3e f8 d4 29 be 83 ff 21 bf da 9e 8e be
       0.23928027 -0.16585147 -0.63280505 -0.2785557
0003f0 d7 04 55 be e1 7a 4a 3e 0c 8e 22 be 13 97 8f 3e
       -0.20802628 0.19773437 -0.15874499 0.28044948

net.4.bias f4 [50]
000000 6b f0 4f be f2 7c 86 bf e3 60 89 bf 3a b3 da be
       -0.20306556 -1.050688 -1.0732692 -0.42714864
000010 72 b5 a7 bf 0a 72 aa bf 8c c7 83 bf fc 92 3c bf
       -1.3102248 -1.3316052 -1.0295272 -0.7366178
000020 a0 64 4f bf df 70 a8 bf 01 49 4d bf 0e 34 8c bf
       -0.81012917 -1.3159446 -0.8018952 -1.0953386
000030 9b 86 ef be c5 e1 3f bf 26 fa 86 bf 4c 47 35 bf
       -0.46782383 -0.7495387 -1.0545089 -0.70811915
000040 0c 63 fe be 54 2e 67 bf 92 81 95 bf 39 de 22 bf
       -0.49684942 -0.90305066 -1.1680167 -0.63620335
000050 f5 36 1e bf ba 0a dc be ac 27 45 bf d3 de 47 bf
       -0.6180261 -0.42976934 -0.7701366 -0.7807438
000060 98 71 10 bf b5 36 4d bf 17 f0 b4 bf 2e 33 a2 bf
       -0.5642333 -0.801616 -1.413577 -1.2671869
000070 0f af bf be dd 60 5f bf 9c 15 a7 bf 7b dc 65 bf
       -0.37438247 -0.87257177 -1.305347 -0.8978955
000080 6b 0f 97 bf a5 3d 53 bf 0f 15 a8 bf f0 d5 32 bf
       -1.180158 -0.8251594 -1.3131427 -0.6985769
000090 2e c5 72 bf 74 3e 36 bf 83 e1 3c bf 38 5a 52 bf
       -0.9483212 -0.71189046 -0.73781604 -0.8216891
0000a0 a5 ef 20 be be 3e 68 40 c0 31 59 bf 74 ab a8 bf
       -0.15716417 3.6288295 -0.8484154 -1.3177323
0000b0 7c d5 0f bf 62 5a 21 bf c4 94 43 bf 13 f0 6c bf
       -0.56185126 -0.6302854 -0.76398873 -0.92553824
0000c0 fd ec 27 bf 13 1e f2 be
       -0.6559599 -0.4728857

net.6.weight f4 [3, 50]
000000 13 49 11 3e 7e 02 88 3e e0 eb 54 be 4b 74 a8 3e
       0.14188032 0.265644 -0.20793104 0.32901224
000010 f4 1a ac 3e f8 85 39 bf 5e 6b 40 3d 7e d3 c4 bd
       0.33614314 -0.72470045 0.046977393 -0.096106514
000020 81 e6 a4 3e 65 79 09 3f f7 4b 82 3e 00 d1 02 3f
       0.3220711 0.5370086 0.25448582 0.5110016
000030 5a ac a4 bd c8 20 54 be 5d a8 8c 3e 17 0b 34 bd
       -0.08040686 -0.2071563 0.274722 -0.04395589
000040 0f dd 5f bb 8a b4 4c 3e 11 b0 c2 bb 0e 68 a2 3c
       -0.003415886 0.19990745 -0.005941399 0.019825008
000050 38 05 f9 3e 9e cb 8f bb 41 b8 81 be 0a 76 9e bd
       0.48636794 -0.0043882867 -0.25335887 -0.07737358
000060 e1 84 23 3c 57 c2 75 3e fd 4a 1c 3e 81 40 4b 3d
       0.009980411 0.23999916 0.15262981 0.049622063
000070 ec 50 14 3f 91 85 84 bd a2 89 20 3e 6c e8 31 be
       0.57935977 -0.06470788 0.15677503 -0.17373818
000080 98 52 92 3d 5c a3 b6 bd 3b c3 cb 3e 3a 7c af 3e
       0.0714466 -0.08917877 0.39797387 0.34274465
000090 a5 ef 80 3e 8c 67 06 bf 51 37 e7 bd 46 b1 fa 3d
       0.25182834 -0.5250175 -0.11289848 0.122408435
0000a0 03 74 65 bf 4c 28 66 bf 43 56 e7 bd 70 c7 b7 bd
       -0.89630145 -0.8990524 -0.1129575 -0.089735866
0000b0 c7 19 c4 3d 73 4c 34 bd 83 10 bf 3d 65 de 25 be
       0.09575229 -0.04401822 0.09329321 -0.16198118
0000c0 15 05 2c 3d 15 9c b2 3e 74 4e 32 3d 89 2b 41 be
       0.041997034 0.34884706 0.04353185 -0.18864264
0000d0 28 bb 5f bd 9d 15 08 bf e1 8d c1 bc 91 3d 50 3e
       -0.054621845 -0.5315798 -0.023627223 0.20335986
0000e0 57 c9 5f be 3f 23 07 bf 10 7a 04 bf b5 b4 ea bc
       -0.21854149 -0.52788156 -0.5174875 -0.028650621
0000f0 75 11 8b be dd 10 cc be 57 38 2e bf cd 2d 07 bf
       -0.27161756 -0.39856616 -0.6805472 -0.5280426
000100 4d ef a0 be 67 0e c3 be 9f b1 9c bd 6f f6 01 bf
       -0.31432572 -0.38096926 -0.07651066 -0.5076665
000110 9e ae 11 be 91 be b3 be dd be 27 bf 31 96 9a be
       -0.14226767 -0.35106328 -0.6552561 -0.30192712
000120 65 16 99 3e 65 d9 5b bd 62 a2 d5 be a9 1e 86 3d
       0.29899898 -0.05367412 -0.4172545 0.06548817
000130 10 28 b5 3e 39 24 bc be e8 b4 ac be 54 10 f0 be
       0.35382128 -0.36746386 -0.3373177 -0.46887457
000140 39 d1 88 be 11 49 5a bd 91 3e db 3d 3e aa 8c 3d
       -0.26722124 -0.053292338 0.10705293 0.068684086
000150 10 75 a4 3e ea 2c f6 bd 2f 90 10 be ee a6 94 bb
       0.32120562 -0.120202854 -0.14117502 -0.004536501
000160 62 59 46 bb 49 18 97 bf ea ca e5 be 69 e6 64 bf
       -0.0030265679 -1.1804286 -0.44881374 -0.8941408
000170 58 77 70 be 68 58 d0 be 4a 62 bb 3c c8 ae f2 bd
       -0.23483026 -0.4069245 0.022874016 -0.11849743
000180 36 59 9b bd 90 f2 96 be fb ea 24 be 65 4c 08 3e
       -0.07585375 -0.29481936 -0.16105263 0.13310392
000190 1c 3c 6d be 2d 06 08 3e be 28 db be 01 2a 4b be
       -0.23167461 0.13283606 -0.4280452 -0.19840242
0001a0 e6 c3 e1 bd 15 ae 10 be d8 dc 11 bf 9c d3 00 bf
       -0.11023693 -0.14128907 -0.56977606 -0.5032289
0001b0 ca 94 00 be ad 23 b9 3b 7f c9 9b 3e 75 51 e4 3e
       -0.12556759 0.005650005 0.30427167 0.44593397
0001c0 4d 4b 94 bf 5a e1 cd be 76 0c 84 3e dc bc e1 3d
       -1.158548 -0.40210992 0.25790757 0.1102235
0001d0 b3 18 a4 3e f1 06 bd be 68 7f 1e 3f d8 9a 0e 3e
       0.32050094 -0.36919358 0.61913157 0.13926256
0001e0 bd 17 53 3e 83 3d 97 3e 4a 03 82 bd bf 12 a5 be
       0.20614524 0.29539117 -0.063482836 -0.32240865
0001f0 3c c8 3a bf d0 81 fb 3d 1e 8a 0a be 9c c2 37 3e
       -0.72961783 0.12280619 -0.1352925 0.17945331
000200 5f fb 04 be 2b 1f 89 be ed 6b e1 bd f6 d1 91 be
       -0.12986515 -0.26781592 -0.11006913 -0.284805
000210 dc c0 68 3e a8 34 20 3e 91 a2 44 3f 80 36 66 3d
       0.2272982 0.15645087 0.76810557 0.05620432
000220 30 8c 9b be dd 2a 4f bf 77 20 0a 3e f6 ab 3d bf
       -0.30380392 -0.8092478 0.13488947 -0.74090517
000230 cd ab 38 bf f9 ec 69 bf 98 91 2d 3e df e0 b9 3e
       -0.7213715 -0.91377217 0.16950071 0.36304376
000240 70 33 b1 be 0c ed 1a 3c 2a 81 bd be b1 39 4f be
       -0.34609556 0.00945593 -0.37012607 -0.20236851
000250 e5 f0 72 3e b8 82 91 3d
       0.23724706 0.07105011

net.6.bias f4 [3]
000000 54 bb 95 c0 46 80 95 c0 d4 d9 94 c0
       -4.679117 -4.6719084 -4.6515903
